tp_dance_start/dance_start/data/Dance/DanceGenGAN.pth (torch, 922884 bytes, 26 tensors)

weight f4 [26, 128, 4, 4]
0	0x3c4b0186	0.0123905
1	0x3c858449	0.01629843
2	0x3d076ea5	0.033064503
3	0x3a2cf918	0.0006598397
4	0xbcf42f4d	-0.029807711
5	0xbac5e291	-0.0015097429
6	0x39bf0d1a	0.0003644012
7	0x3c31e830	0.0108585805
8	0xbcecd407	-0.028909696
9	0xbcca115c	-0.02466648
10	0xbbc11bd9	-0.0058932123
11	0x3c5ae9e8	0.013361432
12	0xbc807bcf	-0.015684037
13	0x3bf84207	0.0075762304
14	0xbc68d2cb	-0.014210413
15	0x3bb4a844	0.005513223
16	0x3c5af314	0.013363618
17	0xbca0f717	-0.019649072
18	0xbc40e4c1	-0.011773289
19	0xbba503ec	-0.005035868
20	0x3c5e3d61	0.013564439
21	0xbc1c6f8b	-0.009548078
22	0x3c18c990	0.0093254
23	0xbc1a52c5	-0.009419148
24	0x3c5ebb26	0.013594424
25	0xbc8d1916	-0.017223876
26	0x3cc846dc	0.02444785
27	0xbc6c227f	-0.014412521
28	0xbcb5ee04	-0.022208221
29	0xba761fe1	-0.00093889056
30	0xbc6817c3	-0.0141658215
31	0x3cd727f9	0.026264178
32	0x3c31db5c	0.010855522
33	0x3bf8fdf1	0.0075986315
34	0x3d88838d	0.06665716
35	0x3bb9203b	0.005649594
36	0xbca0ef69	-0.01964541
37	0x3c481c16	0.012213727
38	0xbc955c5a	-0.018232513
39	0xbcc8e336	-0.024522405
40	0x3ab627ae	0.0013897324
41	0xbc61a007	-0.013771064
42	0x3bca6f2b	0.006177803
43	0xbafbf3ba	-0.0019222416
44	0xbc410d0d	-0.011782897
45	0x3d0554e1	0.03255165
46	0xbb264c46	-0.0025375052
47	0x3c87753e	0.016535398
48	0xba62e49c	-0.0008655281
49	0x3bc1ee5d	0.0059183077
50	0xbb8faed7	-0.004384856
51	0xbc86d010	-0.016456634
52	0x3c87ef7f	0.016593693
53	0x3c4fda0a	0.012686262
54	0xbc7d6f92	-0.015468495
55	0xbc92d18f	-0.017922191
56	0x3c7121a8	0.014717497
57	0x3d9ee7d2	0.0775906
58	0x3b2a0c72	0.002594736
59	0x3c2457f5	0.010030736
60	0x3cac4503	0.021029001
61	0x3c25be0b	0.010116111
62	0x3c9f486a	0.01944371
63	0x3d6c902b	0.057754677
64	0xbd081eed	-0.033232618
65	0x3d0d0876	0.034431897
66	0x3bc0bba7	0.005881745
67	0xbc86d369	-0.01645823
68	0xbd0632ce	-0.032763295
69	0xbb6d1fe7	-0.0036182345
70	0xbaf2a3e0	-0.0018511973
71	0xbc1a107c	-0.009403344
72	0x3bac7718	0.0052632205
73	0x3b9e1514	0.00482429
74	0xbc770f90	-0.015079394
75	0xbc09d8c3	-0.008413496
76	0xbcf0e757	-0.029407186
77	0x3cbe6999	0.023243712
78	0xbc52ebc3	-0.012873593
79	0xbb0ef671	-0.002181437
80	0xbc1db367	-0.009625292
81	0x3a5e3ed6	0.0008477991
82	0x3bfb4c25	0.0076689892
83	0xbb9d3509	-0.004797582
84	0xbc455455	-0.012044032
85	0xbc62c260	-0.013840288
86	0xbc0f83b5	-0.008759429
87	0x3d23ac67	0.039959338
88	0x3c903e63	0.017607873
89	0xbc9373d2	-0.017999563
90	0x3c94746f	0.018121926
91	0xbcbe3893	-0.023220336
92	0x3b69bc76	0.003566531
93	0xbc393e9b	-0.01130643
94	0x3a1eca29	0.0006057346
95	0x3ad14571	0.001596613
96	0x3c3e888d	0.011629236
97	0x3c33afdf	0.010967224
98	0xbc475007	-0.012165076
99	0x3c901d92	0.017592225
100	0xbc2aa659	-0.010415637
101	0x3cd56d4c	0.026053093
102	0x3ba51609	0.005038027
103	0xb8ad5425	-8.264956e-05
104	0xbc859170	-0.016304702
105	0xbbb690b6	-0.00557145
106	0x39ee33e8	0.0004543357
107	0xbbe88fbb	-0.007097212
108	0xbc969fc3	-0.018386727
109	0x3a890b78	0.0010455688
110	0x3d42c8cc	0.047554776
111	0x3c9aa2e4	0.0188765
112	0xbbfb1c29	-0.007663269
113	0x3ccf132d	0.025277698
114	0x3cd8be9a	0.026458073
115	0x3bace870	0.005276732
116	0x3c0d8487	0.008637554
117	0x3b0b86f9	0.0021290167
118	0x3d4b29f9	0.049600575
119	0xbcb0f8bc	-0.02160298
120	0x3c72ada1	0.014811904
121	0x3b9df756	0.0048207445
122	0xbcbf5652	-0.02335659
123	0xb985ad64	-0.00025496923
124	0xbb8e4ff8	-0.004343029
125	0xbaa6499d	-0.0012686733
126	0x3c00319f	0.007824331
127	0x3bead917	0.0071669924
128	0xbcdf5fa6	-0.027267288
129	0xbd160de5	-0.036634345
130	0xbc7789d9	-0.015108549
131	0xbd420c60	-0.047375083
132	0x3af2d71a	0.001852724
133	0x3c3d3101	0.011547328
134	0x3d2591e0	0.04042232
135	0x3bcc1ae3	0.006228791
136	0xbc8e5a13	-0.017376935
137	0xbcc8ed8e	-0.024527337
138	0xbcd00e98	-0.025397584
139	0x3ca9010c	0.020630382
140	0xbce5b0dd	-0.028038437
141	0xbb753b06	-0.0037419214
142	0x3c725849	0.014791557
143	0xbb459afc	-0.0030152192
144	0x3c5f6a97	0.013636253
145	0x3c8bc918	0.017063662
146	0x3c166609	0.0091796005
147	0x3ce37f53	0.027770674
148	0x3c15d8cc	0.009145927
149	0x3b463098	0.0030241366
150	0x3ba4d90b	0.0050307564
151	0xbbb4f82f	-0.00552275
152	0x3b0a7008	0.0021123905
153	0xbcc8a2e2	-0.024491731
154	0xbc1d46d8	-0.00959941
155	0xbbf792c6	-0.0075553386
156	0xbc80e30f	-0.01573327
157	0xbbf0008b	-0.0073242835
158	0xbae3d49a	-0.0017382086
159	0xbc32f19e	-0.010921864
160	0xbcc09bd3	-0.023511803
161	0x3c97372b	0.018458923
162	0xbccd6877	-0.025074227
163	0x3c6cd171	0.014454232
164	0xbca1e335	-0.019761661
165	0x3ca93f10	0.020659953
166	0x39f0c83e	0.0004592556
167	0x3c4d0c87	0.012515194
168	0xbc97d251	-0.018532904
169	0x3ba2e905	0.0049716257
170	0x3b9b5747	0.004740629
171	0xbc6f0601	-0.014588834
172	0xbb94c262	-0.004539774
173	0x3bab80a1	0.0052338396
174	0xbced1fb4	-0.028945781
175	0x3cf88583	0.0303371
176	0xbb918934	-0.0044414047
177	0x3c292a66	0.01032505
178	0xbb0f8650	-0.0021900125
179	0x3c0a0740	0.00842458
180	0x3c40f184	0.011776332
181	0xbcb24df6	-0.02176569
182	0xbbca06cd	-0.0061653615
183	0x3cacdbf1	0.02110097
184	0x3c6485d4	0.013947923
185	0xbc99d03e	-0.018776055
186	0xbcbb8ab2	-0.022893284
187	0x3cba03a6	0.022706818
188	0x3cb3ccde	0.021948274
189	0xbd0625b6	-0.032750808
190	0x3c005d2a	0.007834712
191	0x3cc7a9b0	0.024372905
192	0x3b4cfd0a	0.0031278753
193	0x3b4ba35a	0.0031072707
194	0x3c00e7a6	0.007867729
195	0x3d5218ed	0.051293302
196	0xbbf0b979	-0.007346329
197	0x3b55b363	0.0032608144
198	0x3b2835f4	0.0025666924
199	0xbc4bdbdd	-0.012442556
200	0x3c4658d8	0.012106143
201	0xbcb9e44a	-0.022691865
202	0xbc0d9df3	-0.008643615
203	0x3ca69276	0.02033351
204	0x3c7ce995	0.01543655
205	0x3c6a5202	0.014301779
206	0x3c55ef53	0.013057548
207	0x3bebadd6	0.0071923537
208	0xbc3904b7	-0.011292628
209	0x3c0dd393	0.0086564
210	0xbb7712a0	-0.003770031
211	0x3c448da8	0.011996664
212	0xbc382bf4	-0.011240948
213	0x3d338163	0.043824565
214	0xbbbb407b	-0.005714474
215	0xbcb24990	-0.021763593
216	0xbc9f5e94	-0.019454278
217	0x3b9021f3	0.0043985783
218	0x3cb9d31d	0.022683674
219	0xbc9312c5	-0.017953286
220	0xbc19600f	-0.009361281
221	0xbc99d61c	-0.018778853
222	0x3c0008e8	0.007814623
223	0xbbbd4a8e	-0.00577671
224	0x3d7b6091	0.06137139
225	0xbc850fcc	-0.016242884
226	0x3cc5ba44	0.02413667
227	0xba715384	-0.0009205865
228	0x3c835bf4	0.016035058
229	0x3c8701db	0.016480377
230	0x3c5050bb	0.01271456
231	0xbc8d491a	-0.017246772
232	0xbbd20318	-0.00640906
233	0xbb096e5e	-0.0020970325
234	0xbb2b1560	-0.002610527
235	0xbb9e4cf7	-0.0048309523
236	0xbb9af6ca	-0.0047291266
237	0x3b5464e4	0.0032408768
238	0x3c9de468	0.019273952
239	0xbc761adb	-0.015021051
240	0x3c63bd5c	0.013900127
241	0x3d160c99	0.036633108
242	0xbb7f4d7e	-0.00389561
243	0x3c5474e5	0.012967323
244	0x3ba86c4e	0.005139864
245	0xbc9245ac	-0.017855488
246	0x3c1e03ee	0.009644492
247	0xbccccb9c	-0.024999432
248	0xbcdee5ff	-0.02720928
249	0xba807a8c	-0.0009802147
250	0x3c788398	0.015168093
251	0xbc806c1a	-0.015676547
252	0xbbd17552	-0.0063921595
253	0xbaebb42f	-0.0017982776
254	0x3bde7100	0.006788373
255	0xbc04b0f7	-0.008098832

bias f4 [128]
0	0xbc03cfa5	-0.008045112
1	0xbc34eeff	-0.011043309
2	0xbc451467	-0.01202879
3	0x3c004390	0.007828608
4	0xbb2f7422	-0.0026772101
5	0xb98f1270	-0.00027288822
6	0x3bc3c51a	0.005974424
7	0xbc635647	-0.013875551
8	0x3b8e5a10	0.0043442324
9	0x3c7ffece	0.015624715
10	0x3c7fb984	0.015608195
11	0x3be783d4	0.0070652757
12	0xbb2caedc	-0.0026349341
13	0x3cc9f661	0.024653615
14	0x3b591b9a	0.0033128024
15	0x3c937cc1	0.018003823
16	0x3c8c0643	0.01709283
17	0x3c85ddb7	0.016341073
18	0x3c2da8c8	0.010599323
19	0x3b8cdf8d	0.0042991103
20	0x391d85ef	0.00015022581
21	0x3d0d4341	0.034487966
22	0x3a503c8b	0.0007943592
23	0xbc8bf814	-0.017086066
24	0xba74991f	-0.0009330678
25	0xbc6baa6f	-0.014383896
26	0x3c2c281e	0.010507612
27	0xbd07f399	-0.033191297
28	0x3c968092	0.018371854
29	0xbbb743d0	-0.0055928007
30	0xbc6c6e13	-0.014430541
31	0x3cb77688	0.022395387
32	0xbada628c	-0.0016661449
33	0xba298fed	-0.0006468285
34	0xbb312359	-0.0027029125
35	0xbc83bf4b	-0.016082427
36	0xbc0f28c7	-0.008737749
37	0xba3157bd	-0.0006765088
38	0x3c9bafba	0.019004691
39	0x3ca6ec0c	0.020376228
40	0xbcc50095	-0.02404813
41	0xbbb15182	-0.005411328
42	0x3c2b0091	0.010437147
43	0x3b009e5c	0.001962564
44	0x3cd25822	0.02567679
45	0xbcd7ce5d	-0.026343519
46	0xbd009fad	-0.03140228
47	0xba514437	-0.0007982882
48	0xb8c58852	-9.419084e-05
49	0x3c239d3f	0.009986221
50	0xbc801ce6	-0.01563878
51	0x3b5d201b	0.003374106
52	0xbd0f3fc5	-0.034972925
53	0xbc82772b	-0.015925964
54	0xbc92dd5d	-0.01792782
55	0x3cbc8aeb	0.02301546
56	0xbc4b1158	-0.012394272
57	0xbc233f28	-0.009963788
58	0x3c1a75be	0.009427486
59	0x3c60b70b	0.013715516
60	0x3bdd2c13	0.006749639
61	0x3a37fdce	0.0007018716
62	0xbc6a4324	-0.014298234
63	0xbc1f2d20	-0.0097153485
64	0x3b9005de	0.0043952307
65	0x3c3f6ca4	0.011683617
66	0xbc5fdd5b	-0.013663615
67	0xbbfc0951	-0.0076915403
68	0xbc9e9f7c	-0.019363157
69	0x3c63625e	0.013878433
70	0x3ba6be04	0.0050885696
71	0xbb23add1	-0.0024975429
72	0x3c4a2461	0.012337775
73	0xbca81357	-0.020517034
74	0xbcd44b64	-0.025914855
75	0x3c297aab	0.010344188
76	0xbcaf187c	-0.02137398
77	0x3c27161b	0.010198141
78	0x3c241ee6	0.010017132
79	0xbb0c6b2a	-0.002142618
80	0x3c13fc3a	0.0090323035
81	0x3c4c10f1	0.012455211
82	0xbbba15c5	-0.0056788647
83	0x39430a89	0.00018600574
84	0xbb90bd8a	-0.004417126
85	0x3ca53061	0.02016467
86	0x3c6065ca	0.013696143
87	0x3b5d1721	0.003373571
88	0x3c06682c	0.008203547
89	0x3ce610bf	0.028084157
90	0x3ce768f5	0.02824829
91	0xbb964587	-0.004585925
92	0xbbeda88a	-0.0072527574
93	0xbbf301b6	-0.0074159754
94	0xbc95c2b1	-0.018281313
95	0x3ca27f85	0.019836197
96	0xbaee028c	-0.0018158718
97	0x3c4f8553	0.012666064
98	0xbc958072	-0.018249724
99	0x3c30c6e1	0.010789604
100	0xbbbb72d7	-0.005720477
101	0xbc10181a	-0.008794809
102	0x3ce1651b	0.027514031
103	0x3c828abb	0.015935292
104	0x3ca57878	0.020199046
105	0xbcbcf485	-0.023065815
106	0xbcbce81b	-0.023059895
107	0xbc2288ac	-0.00992028
108	0xbc8d3d6c	-0.017241202
109	0x3c06acb9	0.008219891
110	0xbb33ac7e	-0.0027416046
111	0xbc15961f	-0.00913003
112	0x3b48a709	0.003061714
113	0x3cce58b6	0.025188785
114	0xbc24ed61	-0.010066361
115	0x3c926a38	0.017872915
116	0xbca0ee08	-0.019644752
117	0xbc586d73	-0.0132096885
118	0xbc6c85cc	-0.014436197
119	0xbc25554f	-0.01009114
120	0xbbfff684	-0.0078113694
121	0xbc8c48b2	-0.017124508
122	0xbb262d51	-0.00253566
123	0x3c6fc22c	0.0146336965
124	0x3c655ef9	0.013999694
125	0xbc91d2b2	-0.017800663
126	0x3c84bb2d	0.016202534
127	0xbb4aa8a9	-0.0030923283

weight f4 [128]
0	0x3f8151e1	1.0103112
1	0x3f7b8366	0.98247373
2	0x3f7eb7eb	0.99499387
3	0x3f860f94	1.0473504
4	0x3f7cb9d1	0.98721033
5	0x3f7ba2c6	0.9829525
6	0x3f7e64f2	0.9937278
7	0x3f812f6c	1.0092597
8	0x3f756a05	0.958649
9	0x3f86d868	1.0534792
10	0x3f8040b3	1.0019745
11	0x3f796d1e	0.97432125
12	0x3f84f19e	1.0386236
13	0x3f79a2c0	0.9751396
14	0x3f8a0cb9	1.0785133
15	0x3f86766d	1.0504891
16	0x3f7ddf18	0.9916854
17	0x3f81dacf	1.01449
18	0x3f73213a	0.94972575
19	0x3f7e70e7	0.99391025
20	0x3f826516	1.0187099
21	0x3f7e4a76	0.9933237
22	0x3f794494	0.97370267
23	0x3f887d14	1.0663171
24	0x3f76e5d0	0.96444416
25	0x3f79c2e9	0.97563034
26	0x3f784f8b	0.9699637
27	0x3f829ae3	1.0203518
28	0x3f7b1884	0.9808428
29	0x3f819b1f	1.0125464
30	0x3f7efff0	0.9960928
31	0x3f7dca2f	0.9913663
32	0x3f822a96	1.0169246
33	0x3f868ecb	1.0512327
34	0x3f7d6e75	0.9899667
35	0x3f7e7abf	0.99406046
36	0x3f8425e7	1.0324067
37	0x3f84cea1	1.0375558
38	0x3f81cc63	1.0140499
39	0x3f81c630	1.0138607
40	0x3f828aae	1.0198572
41	0x3f798e42	0.97482693
42	0x3f7dacd4	0.9909184
43	0x3f82992b	1.0202993
44	0x3f76b860	0.96375084
45	0x3f8286d1	1.0197393
46	0x3f8068d8	1.0031996
47	0x3f7ffed4	0.9999821
48	0x3f81a318	1.0127897
49	0x3f7b686c	0.9820621
50	0x3f82606f	1.0185679
51	0x3f7faf4f	0.99876875
52	0x3f797a94	0.97452664
53	0x3f7a813b	0.9785344
54	0x3f7a6a82	0.9781877
55	0x3f820c0f	1.015993
56	0x3f81972c	1.0124259
57	0x3f842d58	1.0326338
58	0x3f799a08	0.9750066
59	0x3f822f27	1.017064
60	0x3f829f27	1.020482
61	0x3f7b3354	0.98125196
62	0x3f7d3eeb	0.9892413
63	0x3f77e030	0.9682646
64	0x3f80b81a	1.0056183
65	0x3f82f72e	1.0231683
66	0x3f866045	1.0498129
67	0x3f7b10b2	0.9807235
68	0x3f81496e	1.0100534
69	0x3f800e10	1.0004292
70	0x3f808a29	1.0042163
71	0x3f77475f	0.9659328
72	0x3f806173	1.0029739
73	0x3f793059	0.973394
74	0x3f822e19	1.0170318
75	0x3f81b26d	1.0132576
76	0x3f820bc1	1.0159837
77	0x3f78f5c6	0.9725002
78	0x3f75e6d1	0.9605532
79	0x3f775572	0.96614754
80	0x3f797d56	0.9745687
81	0x3f7e9225	0.9944175
82	0x3f7fedb7	0.999721
83	0x3f7f79f2	0.9979545
84	0x3f78029c	0.9687898
85	0x3f83f67d	1.0309597
86	0x3f7a275a	0.97716296
87	0x3f81a665	1.0128905
88	0x3f7f2989	0.9967275
89	0x3f7b2b61	0.98113066
90	0x3f825354	1.018168
91	0x3f836756	1.0265911
92	0x3f7e3390	0.9929743
93	0x3f80e353	1.0069374
94	0x3f80e845	1.0070883
95	0x3f7f28cb	0.9967162
96	0x3f81d7c0	1.0143967
97	0x3f7b3774	0.9813149
98	0x3f8084df	1.0040549
99	0x3f7621f4	0.9614556
100	0x3f8389ca	1.0276425
101	0x3f7ca00c	0.9868171
102	0x3f8098a1	1.0046579
103	0x3f7df10c	0.99195933
104	0x3f8098ab	1.004659
105	0x3f85c447	1.0450524
106	0x3f80867f	1.0041045
107	0x3f7cea6a	0.9879519
108	0x3f7f2fdf	0.9968242
109	0x3f7b0f57	0.9807028
110	0x3f828e23	1.0199627
111	0x3f804365	1.0020567
112	0x3f802624	1.001164
113	0x3f7a6781	0.97814184
114	0x3f8459b5	1.0339876
115	0x3f78ae2b	0.9714076
116	0x3f84b0b9	1.0366431
117	0x3f778f9a	0.96703494
118	0x3f6f827d	0.93558484
119	0x3f867f8b	1.0507673
120	0x3f7cd5d7	0.98763794
121	0x3f880335	1.0625979
122	0x3f80a7c4	1.0051198
123	0x3f7cf39a	0.98809206
124	0x3f805f69	1.0029117
125	0x3f84f40a	1.0386975
126	0x3f7e05b3	0.99227446
127	0x3f8055c6	1.0026176

bias f4 [128]
0	0x3c933ce3	0.017973369
1	0xbc3068b9	-0.010767155
2	0xbb6257ec	-0.0034537269
3	0x3d15a2a3	0.036532056
4	0x3ba55f79	0.0050467816
5	0xbc23bb35	-0.009993364
6	0xbc4b990f	-0.012426629
7	0x3bbcca48	0.0057614185
8	0xbc9f0ab1	-0.019414278
9	0x3d8c2ce1	0.068444975
10	0x3cb89ba5	0.022535155
11	0xbb92efb2	-0.0044841403
12	0x3be09c9b	0.0068546063
13	0xbbc77586	-0.006087008
14	0x3d63e1af	0.05563515
15	0x3d0a3e92	0.033751078
16	0xbd1137c3	-0.03545357
17	0x3a365d60	0.0006956663
18	0xbc6e6ac6	-0.014551824
19	0xbc94e670	-0.018176287
20	0xba98f15a	-0.0011668608
21	0xbc5913d7	-0.013249359
22	0xbcb22b4b	-0.02174916
23	0x3d556f2c	0.052107975
24	0xbd3c32f7	-0.04594704
25	0xbce8885c	-0.028385334
26	0xbcf8768c	-0.030329965
27	0x3c88f916	0.016720336
28	0x3c1952f1	0.009358154
29	0x3c05b9f1	0.008162008
30	0xbcde6ad4	-0.027150549
31	0xba32fa52	-0.0006827462
32	0x3c190505	0.009339576
33	0x3baca76b	0.005268981
34	0xbbd31100	-0.0064412355
35	0xbcb06d81	-0.02153659
36	0xbb6fec8f	-0.0036609506
37	0xbc292822	-0.01032451
38	0x3c409037	0.0117531335
39	0xbb7442e8	-0.0037271325
40	0x3b844688	0.0040367283
41	0xbce2d4c3	-0.027689343
42	0xbc0305d2	-0.007996993
43	0x3ceab926	0.028652739
44	0xbd020a73	-0.031748246
45	0x3d1c032a	0.038088955
46	0xbce00609	-0.027346628
47	0x3b62181a	0.003449923
48	0x3ca9298f	0.0206497
49	0xbc96987c	-0.018383257
50	0x3be082e0	0.006851539
51	0x3a38cb1c	0.00070493086
52	0xbca8a4ee	-0.020586457
53	0xbbb3501e	-0.005472197
54	0xbcfb3014	-0.030662574
55	0xbc9a3d32	-0.018828008
56	0x3cb9c9a2	0.022679154
57	0x3ca4eba2	0.02013189
58	0xbcb2b4fa	-0.021814812
59	0x3c432477	0.011910549
60	0xbb9872b7	-0.004652347
61	0xbc989404	-0.018625267
62	0x3ac79157	0.001522581
63	0xbd19dfc2	-0.037566908
64	0xbb827743	-0.0039815023
65	0x3c5cc06b	0.01347361
66	0x3d1e91b7	0.038713183
67	0xbca47f04	-0.020080097
68	0x3becb127	0.0072232666
69	0xbb764d9b	-0.0037582878
70	0x3c5d11c7	0.013493008
71	0xbcd51e51	-0.026015433
72	0x3c110d79	0.00885331
73	0xbc3ef1ec	-0.011654358
74	0x3d15ff55	0.036620457
75	0x3c56710e	0.013088478
76	0x3c25f421	0.010129006
77	0xbcab0bcd	-0.02087965
78	0xbd05b204	-0.032640472
79	0xbc58b7e5	-0.013227438
80	0xbcaade5a	-0.020857979
81	0xbbcedd6e	-0.0063130176
82	0xbc0d2556	-0.008614859
83	0x3a760c0a	0.0009385949
84	0xbc3d7b0a	-0.011564979
85	0x3be1890c	0.0068827923
86	0xbc31edba	-0.010859901
87	0x3a6e515c	0.0009091103
88	0xbc5bcd45	-0.013415639
89	0xbc135dc2	-0.008994522
90	0x3ca643a1	0.02029592
91	0xbc063fbc	-0.008193906
92	0xbc82e0c8	-0.015976325
93	0xbc00501c	-0.0078316
94	0x3c511bcc	0.012762975
95	0xbc3ed392	-0.011647122
96	0x3cab3c66	0.020902824
97	0x3acb86be	0.0015527827
98	0x3bfc6bf9	0.007703301
99	0xbd191443	-0.03737284
100	0x3cdb8ced	0.026800597
101	0xbc9050f1	-0.01761672
102	0x3c174254	0.009232122
103	0x3c664231	0.014053867
104	0xbc8d0a48	-0.017216817
105	0x3bd5d9b9	0.0065261987
106	0x39d2df68	0.00040220772
107	0xbc948ec4	-0.018134482
108	0x3bc43115	0.0059872963
109	0xbc6593a1	-0.014012248
110	0x3d708369	0.058719072
111	0x3c445b84	0.01198471
112	0xbbb190be	-0.005418866
113	0xbd195bde	-0.037441127
114	0x3ceb7890	0.028744012
115	0xbbecccce	-0.007226563
116	0x3ca320cc	0.0199131
117	0xbcd8caa4	-0.026463814
118	0xbcf970d3	-0.030449307
119	0x3c58979e	0.013219742
120	0x3aa9c0bb	0.0012951115
121	0x3d1764b3	0.03696127
122	0xbbfc2b93	-0.007695624
123	0x3cb9af76	0.022666674
124	0x3ba04236	0.0048907055
125	0x3c2d18ac	0.010564964
126	0x3a3eac76	0.00072736235
127	0xbac994de	-0.0015379449

running_mean f4 [128]
0	0xbc457c5f	-0.012053578
1	0xba5fa846	-0.00085318496
2	0x3cd9ea94	0.026601113
3	0x3d8a656e	0.067576274
4	0xbd6420b4	-0.05569525
5	0x3c8cc16a	0.01718207
6	0x3d2c898c	0.042123362
7	0x3cfdf7e9	0.031002002
8	0xbde6fad0	-0.112783074
9	0xbb3d15fc	-0.0028852215
10	0xbd04307f	-0.032272812
11	0xbd1313c4	-0.03590752
12	0x3d0558e3	0.032555472
13	0xbb47533f	-0.0030414609
14	0x3d824a1a	0.0636179
15	0x3d20d3f1	0.039264623
16	0x3d78a6bd	0.06070589
17	0x3dc17451	0.09446014
18	0xbdd3b3b8	-0.10337013
19	0x3cb8d457	0.022562189
20	0x3d6822c3	0.056673776
21	0x3d9900fe	0.07470892
22	0x3ce9b2f2	0.02852771
23	0x398af084	0.0002650061
24	0x3d49cc61	0.049267177
25	0x3d3d4985	0.04621269
26	0x3d969b2f	0.07353818
27	0xbc90be3b	-0.017668834
28	0xbd716dce	-0.05894261
29	0x3d6261d0	0.055269063
30	0x3d187145	0.037217397
31	0x3cb3b5c9	0.021937268
32	0x3dedd67c	0.11613175
33	0x3d975733	0.07389679
34	0x3d556fc0	0.052108526
35	0x3d7ebdfd	0.062192906
36	0x3a16e308	0.0005755876
37	0x3d802930	0.06257856
38	0x3e1de8a3	0.15420775
39	0x3dc31b82	0.09526731
40	0x3d347f65	0.044066805
41	0x3d93192c	0.071825355
42	0x3d24c526	0.040227078
43	0x3d22c49b	0.03973828
44	0x3da50349	0.08057267
45	0xbd8d24a8	-0.06891757
46	0x3cb03e35	0.021514038
47	0x3cb1dfb8	0.021713123
48	0xbc2ed794	-0.010671515
49	0x3d47b3cc	0.048755452
50	0x3d63935c	0.055560455
51	0x3df35d70	0.11883056
52	0xbd1b9722	-0.03798593
53	0xbdacc507	-0.084360175
54	0x3cf357cd	0.029704953
55	0x3dd358d6	0.103196785
56	0x3c9d96dd	0.019236976
57	0x3c9099aa	0.017651398
58	0xbc80cb61	-0.015721979
59	0x3d6e0900	0.05811405
60	0x3cf66174	0.030075766
61	0x3db0486e	0.08607565
62	0x3c480ad1	0.01220961
63	0x3cfecb0a	0.031102676
64	0x3d740e47	0.05958393
65	0x3db152d2	0.08658375
66	0x3d01d036	0.031692706
67	0xbd0e756c	-0.03477995
68	0x3bb91555	0.005648295
69	0x3cc6e59b	0.024279406
70	0xbc01ebcd	-0.007929754
71	0x3c1e90e7	0.009678102
72	0x3ce6f393	0.028192317
73	0x3ca9293b	0.020649543
74	0xbdc6ed99	-0.09713287
75	0xbc0323b3	-0.008004117
76	0x3d241004	0.040054336
77	0x3d591a2f	0.053003486
78	0x3d456d51	0.048199955
79	0x3d797f1d	0.06091224
80	0x3d807599	0.0627243
81	0x3de50d4e	0.11184178
82	0x3daeda68	0.085377514
83	0x3aaad582	0.0013033601
84	0xbd257845	-0.0403979
85	0x3dc22431	0.09479559
86	0x3d077c3a	0.033077456
87	0x3bb0c396	0.0053944094
88	0x3d65902a	0.05604569
89	0x3ca5e6bc	0.020251624
90	0x3d827ce3	0.063714765
91	0x3d2fd033	0.042923164
92	0x3d304fab	0.043044727
93	0x3d2466e7	0.040137198
94	0xbd84fcca	-0.06493528
95	0x3da52b0f	0.080648534
96	0x3c8a7fa7	0.016906573
97	0xbd231faf	-0.039825138
98	0xbafef3fb	-0.0019451374
99	0xbce9f28f	-0.028558044
100	0x3cbb0b1c	0.022832446
101	0x3d9d773c	0.07688758
102	0x3d6a2804	0.057167068
103	0xbc20b28e	-0.009808196
104	0x3d9ea0b4	0.077454954
105	0x3e07598c	0.13217753
106	0x3cabf524	0.020990916
107	0x3d44ead0	0.048075497
108	0x3d8a20f8	0.067445695
109	0x3b3b1170	0.002854433
110	0xbe201bb7	-0.15635572
111	0xbca2737a	-0.019830454
112	0x3dbd647f	0.09247684
113	0x3ddb63bd	0.10712383
114	0x3d2e8c17	0.04261407
115	0xbb9a14eb	-0.0047022006
116	0x3d12be35	0.035825927
117	0xbd2aafee	-0.041671686
118	0xbdea71e4	-0.11447504
119	0x3de29884	0.11064246
120	0xbd9deca6	-0.07711153
121	0x3d702464	0.058628455
122	0x3d2607ef	0.04053491
123	0xbe2a71bb	-0.16644947
124	0x3c07fe10	0.008300319
125	0x3d819fc7	0.06329303
126	0x3d492652	0.04910881
127	0x3cdde140	0.027084947

running_var f4 [128]
0	0x3cc04059	0.023468183
1	0x3cb4a095	0.022049228
2	0x3d1c84e0	0.038212657
3	0x3d13d5c3	0.03609253
4	0x3ce39c28	0.027784422
5	0x3d3a85ac	0.045537636
6	0x3c812bb9	0.015767919
7	0x3cdfadd7	0.027304573
8	0x3d747c0e	0.05968862
9	0x3ccdcfff	0.025123594
10	0x3cc5f927	0.024166657
11	0x3cae362a	0.021266062
12	0x3c8ee3a0	0.017442524
13	0x3c9d7065	0.019218633
14	0x3d0c717d	0.03428792
15	0x3c83cc4a	0.016088624
16	0x3ca17f85	0.019714126
17	0x3d87d11b	0.066316806
18	0x3d1d3818	0.038383573
19	0x3cdc7c3e	0.026914712
20	0x3ca48271	0.02008173
21	0x3d3ef969	0.046624575
22	0x3c897540	0.016779542
23	0x3c8579f3	0.016293501
24	0x3d1c2663	0.038122546
25	0x3d457a1c	0.048212156
26	0x3d2dedd4	0.04246314
27	0x3cc999f1	0.024609538
28	0x3d2df0aa	0.042465843
29	0x3d26319a	0.040574647
30	0x3cad0b44	0.021123536
31	0x3cbc1f81	0.022964241
32	0x3d8b46ca	0.06800611
33	0x3d0c53d7	0.034259643
34	0x3d311235	0.043230254
35	0x3d23c527	0.03998294
36	0x3c066790	0.008203402
37	0x3cd4f216	0.025994342
38	0x3db472fc	0.08810994
39	0x3d61652f	0.055028137
40	0x3d303764	0.043021575
41	0x3d79b017	0.060958948
42	0x3ce7db7c	0.0283029
43	0x3cc2a744	0.0237614
44	0x3d017efd	0.031615246
45	0x3d227eca	0.039671697
46	0x3c61eb4f	0.013789012
47	0x3c87674c	0.016528748
48	0x3ccafa1b	0.024777463
49	0x3d24dfe0	0.040252566
50	0x3d19d86c	0.03755991
51	0x3d7618c3	0.06008221
52	0x3c72fbfe	0.014830587
53	0x3d212f3e	0.039351694
54	0x3c6ab571	0.014325486
55	0x3d86c8a6	0.065812394
56	0x3d876cfd	0.06612585
57	0x3ca29143	0.019844657
58	0x3d3c2dcd	0.045942117
59	0x3d65eaec	0.056132242
60	0x3cb756ad	0.022380197
61	0x3dbf3a04	0.093372375
62	0x3d506870	0.05088085
63	0x3d472884	0.048622623
64	0x3caf7259	0.02141683
65	0x3d1b9a5e	0.037989013
66	0x3d1df7ad	0.03856628
67	0x3cbfd5ee	0.02341744
68	0x3cc1fcf2	0.023680184
69	0x3c7944dc	0.015214171
70	0x3ce84fe4	0.028358407
71	0x3ccc3875	0.024929265
72	0x3cc3d646	0.023905884
73	0x3cf73b40	0.03017962
74	0x3d15c7bb	0.03656743
75	0x3cafeb4f	0.021474509
76	0x3d207fe7	0.039184477
77	0x3d198371	0.037478868
78	0x3cf898a8	0.03034623
79	0x3d148fd1	0.036269967
80	0x3d1c6f86	0.038192295
81	0x3d3c7d88	0.046018153
82	0x3d394fb3	0.045242023
83	0x3cbfe95b	0.023426702
84	0x3d2f3507	0.04277518
85	0x3d8e26ae	0.06940971
86	0x3cbeb359	0.023278879
87	0x3c6111a7	0.013737119
88	0x3d255c00	0.04037094
89	0x3cff6bc8	0.031179324
90	0x3cef3898	0.02920179
91	0x3c7a92b3	0.015293765
92	0x3cf8682a	0.030323107
93	0x3c2e3fae	0.0106353
94	0x3ca0663e	0.019580003
95	0x3cf509ac	0.029911838
96	0x3c3bb198	0.011455916
97	0x3d106ead	0.0352618
98	0x3cdd1c3c	0.026991002
99	0x3cc035fb	0.02346324
100	0x3d195326	0.037432812
101	0x3d6c902f	0.05775469
102	0x3d70cc6d	0.058788706
103	0x3d75c5e0	0.06000316
104	0x3cb8b781	0.022548439
105	0x3df720ec	0.12066826
106	0x3d035353	0.032061886
107	0x3d11e288	0.035616428
108	0x3da3a887	0.079911284
109	0x3d019f21	0.031645898
110	0x3d39563a	0.045248248
111	0x3d177e77	0.03698584
112	0x3d21ecb1	0.039532367
113	0x3d1ed0cd	0.038773347
114	0x3d496983	0.04917289
115	0x3d07b2d6	0.033129536
116	0x3cada6ad	0.021197641
117	0x3cc0ee20	0.023551047
118	0x3db755d4	0.08951917
119	0x3da54e5b	0.08071586
120	0x3d33e26c	0.043917105
121	0x3cef91ef	0.029244391
122	0x3c8185ec	0.01581093
123	0x3d827f3a	0.06371923
124	0x3cfb687f	0.030689476
125	0x3d153605	0.03642847
126	0x3cbefa46	0.023312699
127	0x3c6d7314	0.014492769

weight f4 [128, 64, 4, 4]
0	0x3ca5d77a	0.020244349
1	0x3d065be8	0.032802492
2	0x3aac0050	0.0013122652
3	0xbc7aa2b6	-0.015297582
4	0x3ca7c5da	0.020480085
5	0x3bf3f2ad	0.0074447007
6	0xbbd71d51	-0.006564774
7	0x3a294c0b	0.00064581697
8	0x3ba3ac91	0.0049949368
9	0x3dbe68ef	0.09297358
10	0x3c452c9d	0.012034562
11	0x3d96519e	0.07339786
12	0x3c133b6a	0.008986333
13	0x3bb91b31	0.0056489934
14	0x3c48e161	0.012260766
15	0xbc1e1d43	-0.009650531
16	0xbc973bef	-0.018461196
17	0xbc9dad01	-0.019247534
18	0x3a57fc76	0.0008239219
19	0x3cd2b5a2	0.025721375
20	0xbc4030ef	-0.011730417
21	0x3bd33247	0.0064452025
22	0xbc61f300	-0.013790846
23	0x3c968a02	0.018376354
24	0x3cd96038	0.026535138
25	0x3c17e165	0.009270047
26	0x3b8fce09	0.004388575
27	0x3c53f586	0.012936955
28	0xbce6a5c1	-0.02815521
29	0x3b48c3e4	0.0030634338
30	0x3be154de	0.006876572
31	0x3d26ddcc	0.040738866
32	0x3cd69408	0.026193634
33	0x3c83a6b0	0.016070694
34	0x3d009568	0.031392485
35	0x3b777018	0.0037756022
36	0xbbaea62d	-0.0053298683
37	0xbc8e133a	-0.017343152
38	0x3d0e5eb4	0.034758285
39	0xbcacb5cb	-0.02108278
40	0x3e077eb5	0.13231929
41	0xbc0119c3	-0.007879677
42	0x3d5d16ac	0.0539767
43	0x3bcdd37d	0.006281315
44	0x3c5cb664	0.01347122
45	0x38f071d0	0.00011465291
46	0xbc8c06b3	-0.017093038
47	0xbc4fbc8a	-0.012679229
48	0xbc56cf0e	-0.013110889
49	0xbc80dfe0	-0.015731752
50	0xbc1f1991	-0.009710685
51	0xbce6a89a	-0.028156567
52	0x3bfea9b7	0.0077716964
53	0xbb39faca	-0.0028378242
54	0xbcb4f866	-0.022091102
55	0xbc5c6744	-0.013452355
56	0xbc12d811	-0.008962647
57	0xbcf6c758	-0.030124351
58	0xbd472067	-0.048614886
59	0x3ad2f6ec	0.0016095317
60	0x3ce3baa9	0.027798967
61	0xbbadd902	-0.0053054104
62	0x3c52fcdc	0.012877669
63	0xbb8977ee	-0.004195205
64	0xbcdfbd84	-0.027312048
65	0xbcb09909	-0.021557348
66	0xbd11b583	-0.035573494
67	0xbb850280	-0.004059136
68	0x3cc2cca6	0.023779225
69	0x3d1f2645	0.038854856
70	0x3d91b112	0.071138516
71	0x3cc1d116	0.02365927
72	0xbcc4471b	-0.023959687
73	0xbc41c63e	-0.01182705
74	0xba71802e	-0.00092125207
75	0xbd563f2b	-0.052306335
76	0xbccef7d5	-0.02526466
77	0x3a25b02b	0.00063205016
78	0xbb055d53	-0.0020349815
79	0xbd129fc0	-0.03579688
80	0xbd434230	-0.047670543
81	0xbcc073ee	-0.02349278
82	0xbd24b1a0	-0.04020846
83	0x3caee994	0.021351613
84	0x3cba13b9	0.022714483
85	0xbc5a70cd	-0.013332558
86	0x3d4db417	0.050220575
87	0xbd308ccd	-0.043103028
88	0xbd4a94ad	-0.049458195
89	0x3a47ac66	0.0007616937
90	0xbb5dd2e2	-0.003384762
91	0x3c152223	0.009102377
92	0xbd3d0122	-0.04614366
93	0x3c40d858	0.01177033
94	0x3c13b685	0.009015684
95	0x3cbdcb36	0.023168188
96	0xbb972c02	-0.0046134004
97	0xbc8f7ed2	-0.017516527
98	0x3c9687e8	0.018375352
99	0xbc4aa0b5	-0.012367417
100	0xbbeb5aca	-0.0071824538
101	0xbb97df80	-0.0046347976
102	0x3c01708d	0.007900369
103	0x3bbafc28	0.005706329
104	0xbc5bee3f	-0.0134235015
105	0xbc2371b5	-0.00997584
106	0xbd461b8b	-0.04836611
107	0xbd12b89e	-0.035820596
108	0x3ab54ea8	0.0013832645
109	0x3d369367	0.044574168
110	0x3c4320ec	0.011909705
111	0x3d511a69	0.051050577
112	0x3cd01c9c	0.025404267
113	0x3cee7e4c	0.029112957
114	0xbd0fed04	-0.035138145
115	0x3d10fe90	0.03539902
116	0x3ccb087a	0.024784315
117	0xb9c26b28	-0.000370824
118	0x3c472ed0	0.012157157
119	0x3d4f16fa	0.05055902
120	0x3ab9c468	0.0014172914
121	0xbb9fba82	-0.0048745284
122	0xbca56ba2	-0.020192925
123	0xbbe0fc62	-0.006866024
124	0x3a775b44	0.0009435902
125	0xbcc1ceed	-0.02365824
126	0xbd0034c0	-0.031300306
127	0x3ba8da84	0.005153002
128	0xba70a557	-0.0009179911
129	0xbc558157	-0.013031325
130	0xbbc16d17	-0.005902897
131	0x3b60a626	0.003427872
132	0x3caf8a4c	0.02142825
133	0x3bb587c4	0.005539866
134	0x3c611352	0.0137375165
135	0x3b85d6e5	0.0040844553
136	0xba47706d	-0.00076080003
137	0x3c4d6bd1	0.012537912
138	0x3b344099	0.0027504324
139	0xbc73c494	-0.014878411
140	0xba527e71	-0.00080297055
141	0x3c9de3a6	0.01927359
142	0xbc4289d8	-0.011873685
143	0x3cacbd98	0.0210865
144	0xbd4aee83	-0.04954387
145	0xbcbabd9a	-0.022795487
146	0xbd207ba4	-0.039180413
147	0xbd212c73	-0.03934903
148	0xbad88f97	-0.0016522285
149	0xbaab615c	-0.001307528
150	0xbc872ee8	-0.016501859
151	0x3d0e05db	0.034673553
152	0x3c2e3fa6	0.010635292
153	0xbc9961ba	-0.018723357
154	0x3c1dcbd5	0.009631117
155	0x3b6d60f6	0.0036221123
156	0xbd009f5f	-0.031401988
157	0xbd6afb14	-0.057368353
158	0xbcfbd02d	-0.030738914
159	0xbbc659d9	-0.006053191
160	0xbc8eb36c	-0.01741954
161	0xbcc4d592	-0.02402762
162	0xbc5e830b	-0.013581048
163	0xbceaada6	-0.028647255
164	0xbc5f1a1b	-0.013617064
165	0xbbe1a2fe	-0.0068858853
166	0x3c757508	0.014981516
167	0xbc841860	-0.016124904
168	0x3ce52635	0.02797232
169	0xbce6a221	-0.028153481
170	0x3b4950cb	0.0030718322
171	0x3cb95ce8	0.022627309
172	0xbcc7f34b	-0.024408003
173	0xbcfb4e6e	-0.030677047
174	0xbccd6708	-0.025073543
175	0x3bcef8ca	0.006316279
176	0xbc4ca919	-0.012491488
177	0x3cc71404	0.024301536
178	0x3ca46c9a	0.020071317
179	0xba60abff	-0.0008570551
180	0xbccd397e	-0.025051828
181	0x3b5abfb8	0.0033378433
182	0xbb23e64e	-0.0025009098
183	0x3bebb72d	0.007193467
184	0xbd19e4a8	-0.03757158
185	0x3c70e741	0.014703573
186	0x3c14e32e	0.009087367
187	0xb9cbf7e6	-0.00038903876
188	0x3cf62491	0.030046733
189	0x3ce6117c	0.02808451
190	0x3ce5ff5f	0.028075872
191	0x3d637717	0.055533495
192	0xbca31039	-0.019905197
193	0xbbc8cf7a	-0.0061282488
194	0x3afee53e	0.0019446982
195	0xbd136369	-0.035983477
196	0x3c95d0b2	0.01828799
197	0x3c43b938	0.011946015
198	0xbd01b78c	-0.031669185
199	0xbc778381	-0.015107037
200	0xbd043410	-0.032276213
201	0xb8ed2d36	-0.00011309462
202	0x3ca33f36	0.019927602
203	0xbbe7797d	-0.007064043
204	0x3c2dc6ee	0.010606511
205	0x3c939694	0.018016137
206	0x3c86c2a0	0.016450226
207	0x3d0822b9	0.03323624
208	0x3ca954f8	0.0206704
209	0xbc2bef86	-0.010494119
210	0x3cba6ef5	0.022757987
211	0x3d027114	0.03184612
212	0x3d8f6406	0.070015
213	0x3d133692	0.035940714
214	0x3d0f7fdd	0.03503405
215	0x3d07b6ae	0.0331332
216	0x3d087f6f	0.033324655
217	0xbd146311	-0.03622729
218	0xbbde982a	-0.0067930417
219	0xbc2ad757	-0.010427318
220	0xbc0a02bf	-0.008423506
221	0x3be372b6	0.006941165
222	0x3cea4f82	0.028602365
223	0xbc87c40c	-0.016572975
224	0xbd2119bc	-0.039331183
225	0x3bdd9f16	0.0067633493
226	0x3cb1661c	0.021655135
227	0xbd1a0f38	-0.03761217
228	0x3a9bedc0	0.0011896417
229	0x3c12e513	0.008965748
230	0xbba01865	-0.0048857206
231	0xbd1fd2ec	-0.03901951
232	0x3d236478	0.039890736
233	0x3c81d757	0.015849752
234	0xbba8f25b	-0.005155844
235	0xbcb189c0	-0.02167213
236	0xbcbad885	-0.022808323
237	0x3d3f9906	0.046776794
238	0xbc14edec	-0.009089928
239	0x3cfa6d02	0.030569557
240	0xbbc38cde	-0.0059677204
241	0x3d2c10c6	0.042008184
242	0xbcad9b5b	-0.021192243
243	0xbd0cdbbc	-0.034389243
244	0xbbb2e2ba	-0.005459157
245	0xbc9aa4ff	-0.018877504
246	0x3d020a08	0.031747848
247	0xbc46ba5d	-0.012129393
248	0xbd1ea62b	-0.03873269
249	0x3d4fd9fe	0.050745003
250	0x3cf366f3	0.029712176
251	0x3d87a918	0.06624049
252	0x3bfe902d	0.007768652
253	0x39e1c2d4	0.00043060503
254	0xbb9f25e4	-0.004856812
255	0x3c6204ba	0.013795072

bias f4 [64]
0	0xbcac65ff	-0.02104473
1	0xbc748677	-0.014924637
2	0xbc3828bb	-0.01124018
3	0xbcf18e57	-0.029486818
4	0x3c66ed7d	0.014094708
5	0xbc42a01d	-0.011878994
6	0xbca420f8	-0.020035252
7	0x3cbd32ca	0.023095507
8	0xbca22919	-0.019794988
9	0x3c8afcbc	0.016966216
10	0x3ce6fc10	0.028196365
11	0x3b0b063f	0.002121344
12	0xbc09f5dd	-0.008420435
13	0xbce7f7fc	-0.02831649
14	0x3b2e0e15	0.0026558687
15	0x3cab3ced	0.020903075
16	0x3b367b78	0.002784459
17	0x3c467f28	0.012115277
18	0xbc9c3a4f	-0.019070772
19	0x3c05ce28	0.008166827
20	0xbb41091b	-0.002945489
21	0xbb99d706	-0.0046948222
22	0x3ba02ec4	0.0048883874
23	0xba6f71e1	-0.0009134096
24	0xbcc5005a	-0.02404802
25	0x3c922b06	0.01784278
26	0xbc20dcbf	-0.009818255
27	0xbbcca46f	-0.006245188
28	0xbc04a6f3	-0.008096444
29	0xbcd8b3a0	-0.02645284
30	0x3cc0e8be	0.02354848
31	0xbc225a07	-0.0099091595
32	0x3ba05e42	0.004894049
33	0xbbd83c0a	-0.006598954
34	0x3cd0463c	0.025424115
35	0x3aa7e201	0.0012808443
36	0xbcabb90d	-0.020962263
37	0x3c6c2d4d	0.014415097
38	0xbc9a9738	-0.018870935
39	0x3c884928	0.016636446
40	0x3b71daf4	0.0036904188
41	0xbcd8dd88	-0.026472822
42	0x3b8b5c6d	0.0042529614
43	0xbcc051c5	-0.02347649
44	0x3c45516a	0.012043336
45	0x3c038294	0.008026738
46	0xbc8f696e	-0.017506327
47	0x3cbdf9db	0.02319043
48	0xbc722227	-0.01477865
49	0x3c8cdc82	0.01719499
50	0xbcec62e5	-0.02885575
51	0x3c8110cb	0.015755078
52	0x3cad1400	0.0211277
53	0x3cb269da	0.02177899
54	0xbcdcbfb9	-0.02694689
55	0xbbd9704f	-0.0066357027
56	0xbc7ab01d	-0.015300778
57	0xbcdc1d3d	-0.02686941
58	0xbccf4c1a	-0.025304843
59	0x3bdc264a	0.0067184316
60	0x3d0ad2ed	0.03389256
61	0xbc102cc7	-0.008799738
62	0x3d0cf789	0.034415755
63	0x3c7f2c0c	0.015574466

weight f4 [64]
0	0x3f88c163	1.0684017
1	0x3f820c3e	1.0159986
2	0x3f731bf0	0.94964504
3	0x3f800386	1.0001075
4	0x3f8900a8	1.0703325
5	0x3f84c583	1.0372776
6	0x3f7dcd66	0.9914154
7	0x3f86a915	1.052035
8	0x3f7d1f32	0.98875725
9	0x3f84b93b	1.0369028
10	0x3f7a43a9	0.9775949
11	0x3f80a05f	1.0048941
12	0x3f821d9b	1.0165285
13	0x3f85eff6	1.0463855
14	0x3f7e611d	0.99366933
15	0x3f7ddbb1	0.9916335
16	0x3f7897b7	0.971065
17	0x3f7d53b7	0.98955864
18	0x3f7320c8	0.94971895
19	0x3f824b5e	1.017925
20	0x3f7790d6	0.9670538
21	0x3f7e08a7	0.9923195
22	0x3f888c82	1.066788
23	0x3f88cc66	1.0687377
24	0x3f7f8611	0.99813944
25	0x3f772893	0.96546286
26	0x3f792ba0	0.9733219
27	0x3f855714	1.0417199
28	0x3f7b95ef	0.98275656
29	0x3f7af23c	0.9802587
30	0x3f80b1a2	1.0054209
31	0x3f7758e5	0.9662002
32	0x3f7dfc39	0.99212986
33	0x3f748e11	0.95529276
34	0x3f8102b7	1.0078954
35	0x3f7cbb58	0.98723364
36	0x3f7988fd	0.9747465
37	0x3f7ec5ff	0.9952087
38	0x3f800588	1.0001688
39	0x3f7c2c91	0.985055
40	0x3f815486	1.010392
41	0x3f78cbea	0.9718615
42	0x3f82730a	1.0191357
43	0x3f759db8	0.95943785
44	0x3f7f492e	0.9972104
45	0x3f7c8bb3	0.98650664
46	0x3f80246e	1.0011117
47	0x3f8252e9	1.0181552
48	0x3f83f4bb	1.0309061
49	0x3f8f1593	1.1178459
50	0x3f823013	1.0170921
51	0x3f828d9b	1.0199465
52	0x3f75ff3e	0.96092594
53	0x3f78acdc	0.9713876
54	0x3f805d76	1.0028522
55	0x3f83db69	1.0301334
56	0x3f7ece9a	0.99534
57	0x3f873202	1.0562136
58	0x3f7784b9	0.96686894
59	0x3f80e626	1.0070236
60	0x3f7197c1	0.94372183
61	0x3f7dd278	0.99149275
62	0x3f833f72	1.0253737
63	0x3f7259cc	0.9466827

bias f4 [64]
0	0xbb2ab0c3	-0.00260453
1	0x3b4d790f	0.0031352674
2	0xbd4ea172	-0.050446935
3	0x3cb4a265	0.022050092
4	0x3d9102bc	0.070806
5	0x3cc750c6	0.024330508
6	0x3a6e6c43	0.0009095112
7	0x3db3e9bc	0.08784816
8	0x3c370f90	0.011173144
9	0x3ddc3428	0.107521355
10	0xba9b94aa	-0.0011869867
11	0x3c473c32	0.012160348
12	0xbc7bae4a	-0.015361378
13	0x3c81bcac	0.015837036
14	0x3d09918d	0.033586074
15	0xbcfb86a1	-0.030703845
16	0xbcde5a8a	-0.027142782
17	0x3c8d3385	0.01723648
18	0xbd82fc81	-0.063958175
19	0xbc89aaed	-0.016805137
20	0xbcb8fac6	-0.022580516
21	0x3c5f5791	0.013631717
22	0x3d7ae37a	0.061252095
23	0x3d83c9af	0.064349525
24	0x3cb2bb92	0.021817956
25	0xbbeb8061	-0.007186935
26	0xbc9cf94d	-0.019161845
27	0x3d266f4c	0.040633485
28	0x3c0698bf	0.008215128
29	0xbc3f3cd9	-0.011672222
30	0xbcf208e8	-0.029545262
31	0xbcf95796	-0.030437272
32	0xbc88b100	-0.016685963
33	0x3c499583	0.012303713
34	0xbca6e232	-0.02037153
35	0x3c92ce2b	0.017920574
36	0xbcfc6abc	-0.030812614
37	0x3d0bb287	0.034105804
38	0x3c62b836	0.013837865
39	0xb85bee00	-5.2435324e-05
40	0xbc238528	-0.009980477
41	0x3d27b05b	0.04093967
42	0x3d0c565c	0.034262046
43	0xbd263e72	-0.040586896
44	0x3ba0d87f	0.004908621
45	0x3c9128a5	0.017719576
46	0x3d256e72	0.040388532
47	0x3c12297a	0.008921022
48	0x3c05fbdb	0.008177723
49	0x3dab1f29	0.08355553
50	0xbb3a9304	-0.0028468976
51	0x3c88baf5	0.01669071
52	0xbcf82336	-0.030290227
53	0xbc0ff113	-0.008785504
54	0xbcfde9fe	-0.030995365
55	0x3d9a1857	0.07524174
56	0x3d3a605e	0.04550206
57	0x3d941f69	0.072325535
58	0xbc9eb24f	-0.019372134
59	0x3c2d9969	0.010595658
60	0xbd0b70e3	-0.034043204
61	0x3d170777	0.036872353
62	0x3d482bd5	0.048869926
63	0xbc31207f	-0.01081097

running_mean f4 [64]
0	0x3e97d37c	0.29653537
1	0x3f158df2	0.58419716
2	0x3cf9dff8	0.030502304
3	0xbee675d2	-0.45011765
4	0xbf42d309	-0.76103264
5	0xbe98b952	-0.29828888
6	0x3ee88751	0.45415738
7	0xbe332858	-0.17495859
8	0x3ec620f7	0.38697025
9	0xbf64bf18	-0.89354086
10	0x3e25b40a	0.1618196
11	0x3f15bc11	0.5849009
12	0x3e8133f4	0.2523495
13	0xbf0904a0	-0.5352268
14	0xbe95c7e2	-0.2925406
15	0xbd8adc7f	-0.067803375
16	0xbcc10bf8	-0.023565277
17	0x3f2aca73	0.66715163
18	0x3deeb7e2	0.116561666
19	0x3f23ceb5	0.63987285
20	0x3e0defb0	0.13860965
21	0xbf06ef4f	-0.52708906
22	0xbf00a822	-0.5025655
23	0xbf19eed7	-0.60130066
24	0xbe8bb441	-0.2728596
25	0xbe3b4be1	-0.18290664
26	0xbeb38dbd	-0.35069075
27	0x3d0addc1	0.033902887
28	0xbea264f4	-0.31717646
29	0x3e098305	0.13428886
30	0x3ead7d0f	0.33884475
31	0x3e8af283	0.27138147
32	0x3e9d79f2	0.307571
33	0xbf07c651	-0.5303698
34	0x3c47085e	0.012147991
35	0x3e796f1c	0.24358791
36	0x3f606682	0.87656415
37	0xbf101fa4	-0.5629828
38	0xbeca19f3	-0.39472923
39	0x3ef3fc35	0.47653356
40	0x3e28998d	0.16464825
41	0xbf10de4f	-0.56589216
42	0xbec93dba	-0.39304906
43	0x3e0b9f93	0.13635091
44	0x3d489ce9	0.048977766
45	0xbeb26c79	-0.34848383
46	0xbe7e0dc2	-0.24809936
47	0x3e2bbb0a	0.16770568
48	0x3f0b2308	0.5435033
49	0xbef68192	-0.4814573
50	0xbd598583	-0.053105842
51	0xbf198d2b	-0.5998103
52	0xbe5536eb	-0.20821731
53	0xbe89cf6f	-0.26916072
54	0x3f7a6c1b	0.97821206
55	0xbf6ee57d	-0.9331892
56	0xbf15261a	-0.58261263
57	0xbea42d2f	-0.32065722
58	0xbd556262	-0.05209578
59	0xbebd3a45	-0.3695852
60	0xbe51517f	-0.20441245
61	0xbf10ce19	-0.5656448
62	0xbea51214	-0.32240355
63	0xbd937ae1	-0.07201172

running_var f4 [64]
0	0x4096d42c	4.7134
1	0x406d0e5d	3.7040017
2	0x4094cdfa	4.6501436
3	0x40137a8e	2.3043551
4	0x40358f44	2.8368692
5	0x3fc4efd7	1.5385693
6	0x408e342e	4.4438696
7	0x40021dd7	2.0330713
8	0x40127c8c	2.2888517
9	0x4045d7d1	3.0912974
10	0x407e89fa	3.9771714
11	0x40c98f22	6.2987223
12	0x405b9f63	3.4316032
13	0x4028f8a9	2.640177
14	0x406795da	3.6185212
15	0x40148cf0	2.3211021
16	0x4062d46f	3.544216
17	0x409ec3af	4.961387
18	0x401a0e26	2.4071136
19	0x4033b989	2.8081992
20	0x402b0e6b	2.672755
21	0x4011e7e6	2.279779
22	0x405acc63	3.4187248
23	0x4004bad0	2.0739021
24	0x4001f0f6	2.030332
25	0x4049220b	3.1427028
26	0x40491359	3.141806
27	0x404313bf	3.0480802
28	0x4050d461	3.2629626
29	0x3fc106f9	1.5080253
30	0x4054b600	3.3236084
31	0x407abe75	3.9178746
32	0x4068ce78	3.6376019
33	0x40471e8c	3.1112394
34	0x3fae1137	1.3599004
35	0x4071f29b	3.7804325
36	0x40c3dbcf	6.120582
37	0x402de1cc	2.7169065
38	0x40633200	3.5499268
39	0x40cba1e0	6.36351
40	0x407cb6f7	3.9486673
41	0x408a9e12	4.3317957
42	0x40165bba	2.3493485
43	0x40522757	3.283651
44	0x4010abca	2.2604852
45	0x4018f936	2.3902106
46	0x403bcc88	2.9343586
47	0x3ff76f69	1.9330875
48	0x40815f2f	4.042869
49	0x40831359	4.096112
50	0x407cfc12	3.9528852
51	0x406cf2af	3.7023122
52	0x4041e0e2	3.0293508
53	0x40223564	2.5345087
54	0x40d6fb5e	6.7181845
55	0x4065f0d0	3.592823
56	0x405587ca	3.336413
57	0x4055cb80	3.3405457
58	0x408b07cd	4.3447022
59	0x3fc85f77	1.5654134
60	0x40171dfd	2.3612053
61	0x40875acd	4.229834
62	0x40399ff2	2.9003873
63	0x402f6df3	2.7410858

weight f4 [64, 32, 4, 4]
0	0xbc2e968a	-0.0106560085
1	0x3c2b3ac7	0.010451025
2	0x3ceeb8b5	0.02914081
3	0x3b87f477	0.0041490155
4	0x3d115d43	0.035489332
5	0x3cda6f36	0.026664358
6	0x3d83c21f	0.0643351
7	0xbb4c77fd	-0.0031199448
8	0x3c9ffef1	0.019530745
9	0xbdac3254	-0.08408037
10	0x3d2c5b75	0.042079408
11	0x3c743ead	0.014907521
12	0xbbc214ae	-0.0059228754
13	0xbd10c9de	-0.035348766
14	0x3b6c965f	0.003610037
15	0xbc674f53	-0.014118033
16	0x3d5043e7	0.050846007
17	0x3c137d98	0.009002112
18	0x3db1a35b	0.08673736
19	0x3c90a535	0.017656902
20	0x3d6c844e	0.057743363
21	0x3cc0e360	0.02354592
22	0x3d298f18	0.04139623
23	0xbd3fe7f1	-0.046852056
24	0xbcfc865c	-0.030825786
25	0x3bda6190	0.0066644624
26	0x3c91543c	0.017740361
27	0xbd9d3539	-0.07676167
28	0xbd0d53a0	-0.03450358
29	0x3bea768a	0.0071552442
30	0x3c28ba90	0.010298386
31	0x3ca2e911	0.019886525
32	0x3d094b6d	0.033519197
33	0xbcd7dc18	-0.026350066
34	0xbcec04ae	-0.028810825
35	0xbc522a81	-0.0128275165
36	0xba5c50fb	-0.0008404401
37	0x3d5a16ff	0.053244587
38	0x3c9f5dee	0.019453969
39	0xbbce4abb	-0.0062955297
40	0x3cb5ca5f	0.022191225
41	0xbcc37bcf	-0.023862747
42	0xbcab3c8b	-0.020902893
43	0x3c6d5f21	0.0144880125
44	0xbd9474c4	-0.07248834
45	0xbcf427be	-0.029804107
46	0xbb615643	-0.0034383691
47	0x3dc0a9c1	0.09407378
48	0x3dd7a502	0.105295196
49	0xbcb10055	-0.021606604
50	0x3d731203	0.05934335
51	0xbce19ad1	-0.027539643
52	0x3ccc7ab5	0.024960855
53	0x3b6626bf	0.003511831
54	0xbd0e24d7	-0.034703102
55	0x3d9dd2e8	0.07706243
56	0x3d33e723	0.0439216
57	0xbb34b746	-0.002757506
58	0x3af96b0a	0.0019029093
59	0xbc940dd6	-0.018073004
60	0xbd310a16	-0.04322251
61	0xbc984300	-0.018586636
62	0x3d316c1f	0.043316003
63	0xbd8eb182	-0.06967451
64	0x3d3ad510	0.04561335
65	0xba8ae030	-0.0010595378
66	0x3c4ed0d8	0.012623034
67	0xbcd4a5f4	-0.025958039
68	0xbd3be7c9	-0.045875344
69	0x3d006c94	0.03135355
70	0x3b92617d	0.004467188
71	0xbc34ad50	-0.011027649
72	0xbd83c5b4	-0.06434193
73	0x3da03454	0.07822481
74	0x3d30939c	0.04310952
75	0x3c54b122	0.012981685
76	0xbd43ffb7	-0.04785129
77	0xbb347632	-0.002753627
78	0xbca9dec7	-0.020736111
79	0x3c196549	0.009362527
80	0xbce360ee	-0.02775618
81	0x3d03b266	0.032152556
82	0x3d9042de	0.07044004
83	0x3d3ba52c	0.045811817
84	0x3c05d4fb	0.008168454
85	0x3d38fc11	0.045162264
86	0x3bcfa440	0.006336719
87	0xbc67f7c6	-0.014158195
88	0xbccb9ec2	-0.024855975
89	0xbc03aa52	-0.008036213
90	0xbcb2ef72	-0.021842692
91	0x3d2f1c00	0.042751312
92	0xbd9eaa4f	-0.077473275
93	0x3a24869e	0.0006276163
94	0xbd66fd07	-0.05639365
95	0x3cea0f2a	0.028571684
96	0xbc8d34b3	-0.017237043
97	0xbd614005	-0.054992694
98	0xbdc2f690	-0.09519684
99	0x3d8686b6	0.06568663
100	0xbd48994d	-0.048974324
101	0xbd71d93c	-0.05904506
102	0x3cceb83b	0.025234332
103	0x3bca04ab	0.0061651072
104	0xbcf6029e	-0.030030545
105	0x3d2d6439	0.042331908
106	0x3d03ddb4	0.032193854
107	0x3cbe1310	0.02320245
108	0xbdba81ba	-0.09106775
109	0xbcedaf8e	-0.029014375
110	0x3d8198c6	0.06327967
111	0x3c06705a	0.008205498
112	0x3b886caa	0.0041633444
113	0xbd029836	-0.03188344
114	0x3be5a2a1	0.0070079123
115	0xbd1b7e9e	-0.03796255
116	0xbccfc792	-0.025363717
117	0xbc76fe24	-0.01507524
118	0x3d3172de	0.043322437
119	0xbb5f5266	-0.0034076213
120	0xbd55baaf	-0.05217999
121	0x3b5c9f1e	0.0033664177
122	0x3c76fc5d	0.0150748165
123	0xbd52445a	-0.051334716
124	0xbd1be497	-0.038059797
125	0x3d07f190	0.033189356
126	0x3c0e0805	0.008668904
127	0xbccf915a	-0.025337864
128	0xbd1b54d7	-0.037922706
129	0x3b68e1f6	0.0035535074
130	0xbc5c6794	-0.013452429
131	0xbd788df5	-0.060682256
132	0xbd956d04	-0.07296184
133	0x3d998803	0.07496645
134	0x3caf056b	0.021364888
135	0x3c92aee2	0.017905656
136	0x3c8edaa7	0.017438246
137	0x3ab051a0	0.001345206
138	0x3dd91d12	0.10601248
139	0xbc8eff20	-0.017455637
140	0xbd493051	-0.049118344
141	0x3d7cba38	0.06170103
142	0x3cb6ab55	0.022298494
143	0x3c6b9a65	0.014380072
144	0xbd031458	-0.032001823
145	0xbd1c5e2e	-0.038175754
146	0xbc937752	-0.018001232
147	0xbcccdbd4	-0.025007166
148	0x3d5df7db	0.05419145
149	0xbc3f4bea	-0.011675814
150	0x3d59373a	0.053031184
151	0x3a7c1340	0.00096159056
152	0xbd4e1596	-0.050313555
153	0x3d356e9c	0.04429494
154	0x3c07753e	0.008267699
155	0x3b845ca3	0.0040393635
156	0x3d4e82a1	0.050417546
157	0x3c92e6c9	0.017932313
158	0x3ded4a15	0.11586396
159	0xbd32912e	-0.043595485
160	0x3cceaaf7	0.025228007
161	0xbd81b3f7	-0.06333154
162	0xbd272df4	-0.04081531
163	0xbcd1e4b2	-0.025621746
164	0x3cbcf8e3	0.023067897
165	0xbc937c59	-0.01800363
166	0xbd0d9050	-0.034561455
167	0xbd7e8018	-0.06213388
168	0x3d891e0d	0.06695185
169	0x3d17da1c	0.03707324
170	0x3d120837	0.035652366
171	0x3bfa4c3a	0.0076384814
172	0xbd5234fb	-0.051320057
173	0x3d43cc4e	0.047802262
174	0xbd55e8a0	-0.0522238
175	0xba9e8088	-0.0012092749
176	0xbd54d300	-0.051959038
177	0x3be5ab99	0.0070089814
178	0xbc567ec9	-0.013091751
179	0xbb55f035	-0.0032644395
180	0xbccc83d8	-0.024965212
181	0x3cb79aaf	0.022412626
182	0xbd19c2ca	-0.03753928
183	0x3d450f32	0.048110195
184	0xbc854d3d	-0.016272182
185	0xbb848ae5	-0.004044878
186	0x3dc7e36d	0.09760175
187	0xbc2412c1	-0.010014237
188	0x3d327af2	0.04357428
189	0xbc515fb7	-0.012779168
190	0xbca1136f	-0.019662587
191	0xbc252dcc	-0.01008172
192	0xbcd9ee85	-0.026602993
193	0xbc7f11ae	-0.01556818
194	0x3cdd782d	0.027034843
195	0xbcdb562f	-0.026774494
196	0xbd725b28	-0.059168965
197	0xbcb7014f	-0.022339491
198	0x3bd6dd60	0.0065571517
199	0xbd568222	-0.052370198
200	0xbab3417e	-0.0013676134
201	0x3c51d246	0.012806481
202	0xbcf13823	-0.029445713
203	0xbca79379	-0.020456063
204	0xbcb141f5	-0.021637896
205	0x3d472930	0.048623264
206	0x3de33003	0.11093142
207	0xbd9ed4a8	-0.07755405
208	0x3d3b6fdc	0.045760974
209	0x3deaaf92	0.11459269
210	0x3d4e057a	0.05029819
211	0xbc59e10c	-0.013298284
212	0x3c52d23f	0.012867509
213	0xbbc578ac	-0.006026348
214	0x3cd5d6ad	0.026103342
215	0xbcd49c89	-0.025953548
216	0xbccf9359	-0.025338816
217	0xbbce52a1	-0.006296471
218	0x3d7e4091	0.062073294
219	0xbc23bef5	-0.009994258
220	0x3d658a44	0.056040064
221	0x3d20e327	0.03927913
222	0xbc898ad0	-0.016789824
223	0xbc6b29d8	-0.014353238
224	0x3d5fa9ec	0.05460541
225	0x3cf5b962	0.029995624
226	0x3c7b9687	0.015355713
227	0xbaa96e24	-0.0012926501
228	0xbd60a782	-0.054847248
229	0x3b4f7e80	0.0031661093
230	0x3d7089b8	0.05872509
231	0xbc84158d	-0.016123557
232	0x3c8c48a7	0.017124487
233	0xbc7675fb	-0.015042777
234	0xba8bafec	-0.0010657287
235	0x3c5121e5	0.012764429
236	0x3c3e51c0	0.01161617
237	0x3d1d1527	0.03835025
238	0x3da02a10	0.07820523
239	0xbd1e0d45	-0.038586874
240	0x3b3c6758	0.002874812
241	0x3d6af9e9	0.05736724
242	0x3cfbe03d	0.030746574
243	0x3d3245c0	0.04352355
244	0xbc0457a8	-0.0080775395
245	0x3bdbbf5f	0.006706163
246	0x3c4160c4	0.011802856
247	0xbd5ae777	-0.0534434
248	0xbc857cc4	-0.016294844
249	0xbd2b5b79	-0.041835282
250	0xbc27ba6e	-0.010237319
251	0xbb8fbed3	-0.0043867617
252	0x3cb9c80a	0.022678394
253	0x3dc80ced	0.097680904
254	0x3d0e3b02	0.034724243
255	0x3d88bded	0.066768505

bias f4 [32]
0	0xbc97e702	-0.01854277
1	0xbb75535c	-0.003743372
2	0xbd5bfb31	-0.05370635
3	0x3d1cbf5f	0.038268443
4	0x3bcbf165	0.006223845
5	0x3d34e552	0.04416401
6	0x3ceeb065	0.029136846
7	0xbc9953d8	-0.018716738
8	0xbceb7b5b	-0.028745344
9	0x3d0eb0ad	0.03483646
10	0x3c9547fb	0.0182228
11	0x3cba57d8	0.022746965
12	0x3c2e7447	0.01064784
13	0x3ce33aa1	0.027737917
14	0x3c8ee8d1	0.017445
15	0x3af79d3c	0.0018891464
16	0xbd18eb56	-0.03733381
17	0x3c9d33a5	0.019189665
18	0x3c12eb82	0.008967282
19	0xbc679399	-0.014134311
20	0x3d22ca96	0.039743982
21	0xbcc9bc91	-0.024626048
22	0xbb7459a5	-0.0037284878
23	0x3d05e254	0.032686546
24	0xbb59a39e	-0.0033209096
25	0x3d02dab5	0.031946857
26	0xbc04f1da	-0.0081143025
27	0x3cf0b3a7	0.02938254
28	0x3cc359c7	0.02384652
29	0x3b900d1f	0.0043960954
30	0x3d7b7d7f	0.06139898
31	0xbd05dfd5	-0.032684166

weight f4 [32]
0	0x3f778484	0.9668658
1	0x3f831b2d	1.0242668
2	0x3f850200	1.0391235
3	0x3f7bb8d2	0.9832889
4	0x3f7f6d5f	0.9977626
5	0x3f883a5a	1.0642807
6	0x3f6bb0b8	0.92066526
7	0x3f6b4cc4	0.9191401
8	0x3f8594e9	1.0436069
9	0x3f6b98c2	0.92029965
10	0x3f83de51	1.030222
11	0x3f8171e2	1.0112879
12	0x3f87266a	1.0558598
13	0x3f82d517	1.022128
14	0x3f887895	1.0661799
15	0x3f784fa1	0.96996504
16	0x3f8234b1	1.017233
17	0x3f7e83a5	0.99419624
18	0x3f7bffb8	0.9843707
19	0x3f7e2215	0.99270755
20	0x3f88d6f5	1.06906
21	0x3f7b2f74	0.9811928
22	0x3f812e36	1.0092227
23	0x3f76e951	0.9644976
24	0x3f843a30	1.0330257
25	0x3f7e5cc0	0.99360275
26	0x3f83fef9	1.0312186
27	0x3f7cfbd3	0.98821753
28	0x3f7e1155	0.99245197
29	0x3f7e9a78	0.9945445
30	0x3f82acbb	1.0208963
31	0x3f788aaf	0.97086614

bias f4 [32]
0	0xbd84057b	-0.06446358
1	0x3bd9da58	0.006648343
2	0xbcc3a460	-0.023882091
3	0xbd930a87	-0.07179742
4	0x3d55a810	0.05216223
5	0x3bc70db2	0.0060746307
6	0xbda3f445	-0.08005575
7	0xbdd29444	-0.10282186
8	0xbccbea8c	-0.024892114
9	0xbe0a8f35	-0.13531192
10	0xbd00ef0d	-0.031477977
11	0x3cc0824d	0.023499632
12	0x3db553c6	0.08853869
13	0x3bda4053	0.0066605
14	0x3bda82fe	0.0066684475
15	0xbdea20cc	-0.11432037
16	0xbd38a8c0	-0.045082808
17	0xbc42d6fe	-0.011892078
18	0xbd2e2a6a	-0.042520918
19	0xbcd0dabd	-0.025494928
20	0xbc20f7f4	-0.009824742
21	0xbcc6ba7c	-0.024258845
22	0xbc1c1be4	-0.009528134
23	0xbd13d2d5	-0.036089737
24	0xbb15275e	-0.002275906
25	0x3c3101b2	0.010803627
26	0xbcb5941e	-0.022165354
27	0xbd48e454	-0.049045876
28	0xbda0dd87	-0.07854753
29	0xbd58f396	-0.052966677
30	0xbd0d0077	-0.03442427
31	0xbc83b3a7	-0.016076876

running_mean f4 [32]
0	0x3e216d43	0.15764336
1	0xbeb7d87f	-0.3590736
2	0x3ee96da6	0.45591468
3	0x3ebe889d	0.37213603
4	0xbf0733ff	-0.52813715
5	0x3d3fe914	0.04685314
6	0xbe8e9ec2	-0.27855498
7	0x3e3fceb9	0.18731202
8	0xbe22d821	-0.15902759
9	0x3daa525b	0.08316489
10	0xbf0ce137	-0.5503115
11	0xbe7a63ef	-0.24452184
12	0x3d27ac1b	0.040935617
13	0xbe98e6ab	-0.29863486
14	0x3f3dae63	0.7409422
15	0x3ef105f6	0.4707486
16	0xbe2b93a7	-0.16755544
17	0x3e88eb0a	0.2674182
18	0xbeac5f07	-0.3366625
19	0xbe667dc7	-0.22508918
20	0xbe918608	-0.2842257
21	0xbefd73c9	-0.495024
22	0x3eb3f620	0.35148716
23	0xbdae116b	-0.08499416
24	0xbe46fb62	-0.19431832
25	0xbeac6ea3	-0.3367816
26	0xbdea4312	-0.11438574
27	0xbe4a7e84	-0.19774824
28	0xbe72ee65	-0.23723753
29	0xbe8121be	-0.25221056
30	0xbd605b15	-0.054774363
31	0x3e31c99a	0.17362061

running_var f4 [32]
0	0x3f9e38df	1.2361106
1	0x3f996447	1.1983727
2	0x3fb08e6c	1.3793464
3	0x3fc8b1cc	1.5679259
4	0x3fa1cad7	1.2640027
5	0x3fa792f6	1.3091724
6	0x3f76a3c0	0.9634361
7	0x3f900677	1.1251973
8	0x3f4371ca	0.76345503
9	0x3fa2469c	1.2677798
10	0x3f9a05b0	1.2032986
11	0x3f6368d9	0.8883186
12	0x3fa08fb2	1.2543852
13	0x3f3f7f17	0.748033
14	0x3fef6531	1.8702756
15	0x3fb0bd7a	1.3807824
16	0x3faa7151	1.3315831
17	0x3fa116e2	1.2585108
18	0x3f6f1130	0.933856
19	0x3f8960d2	1.0732672
20	0x3f95c016	1.1699245
21	0x3f2e8b7f	0.68181604
22	0x3f889679	1.0670921
23	0x3fba5bc5	1.4559256
24	0x3f85297b	1.0403284
25	0x3f393ddb	0.7236001
26	0x3f698c6a	0.9122988
27	0x3f945edd	1.159145
28	0x3f780139	0.96876866
29	0x3f424e19	0.7590042
30	0x3f735bf8	0.9506221
31	0x400e532f	2.2238271
