tp_dance_start/dance_start/data/Dance/DanceGenVanillaFromSke.pth (torch, 923322 bytes, 26 tensors)

weight f4 [26, 128, 4, 4]
00000000: bdcc 3fbd c390 d73c 11c4 0e3d d2fe 9e3c
00000010: 5c7d 01bd 0697 0a3d 8cf6 adba 11ad aa3a
00000020: 1920 a2bc 432b 3fbc 7101 f8b9 4afc b43c
00000030: e566 0cbd 0172 bd3c f20c 12ba 2217 453c
00000040: ca2a 9bbc a7bd 3bba 53ec 973a 05f0 fa3a
00000050: 4454 49bd a04e aabc 185a 89ba 1184 adbc
00000060: ffd6 533c eb20 ae3b 8980 aabc 58fe 0c3d
00000070: 4303 8f3c 8a05 febb 2e73 6fbc 556a 043d
00000080: db65 953b 9498 433c a42e dd3c fe32 673c
00000090: 379c a4bc 22a1 81bc 8d01 493c f127 093d
000000a0: e488 29bc 00a1 b63b 1529 cdbc e874 3a3b
000000b0: d580 053d 3ca0 50bd 9319 b7bc b6ac 56bc
000000c0: 9164 5d3c 6e11 cabc 2d47 41bc 8707 7dbc
000000d0: 9f27 d53b a84f ccbb ebc3 043c e8ba bf3b
000000e0: a8ff dfb7 dcc6 a4bc ccf4 2f3b 7ff7 89bd
000000f0: c82d 193d 896a 5dbc 2783 abbb c4d5 85bc
00000100: 88bc 2abc 3682 8cbc f661 a53c be83 77bc
00000110: 14fb 203c 5a83 3dbd 3c2c 323c e973 5abc
00000120: 8671 3abc 2d84 a03a c5cb e43c d578 76bc
00000130: 04b9 27bc 63e7 00bb 9aae e0bc f9e6 94bc
00000140: c7f6 823c 1999 8f3d a11b 473c a67a 43bb
00000150: 4935 84bc 0de5 a63c 81bf 4f3d bfd5 593d
00000160: 8a5d bf3b 8f99 8fbc a409 043b 3c1e 81bc
00000170: 0d09 30bd 4a92 c83b e27a 9b3c 04c1 b23c
00000180: 2048 3ebc 9046 37bc 268b 84bd 2270 3dbd
00000190: ce95 803b 704f a2bc 0dff 5ebc 2877 30bc
000001a0: cab7 1e3c feec ef3b 63cf 35bc 3cb9 f3bc
000001b0: 3a48 613d 2ea6 b13c f64e f33c f6f3 e23b
000001c0: 860e 843c 2687 e33c 484b 373d 7b5d 2cbc
000001d0: d201 60bc 833e 293c 88b2 cdbb 5c00 253d
000001e0: 12f4 723c d950 aabb ec32 1ebb 00d2 d9bc
000001f0: 9d14 d3b9 5752 733c d731 65bc 4212 203c
00000200: 1fc5 4cbc 2560 e93b 0c98 a5bd 0692 bb3c
00000210: 1762 153c 6b2d 553c 7f3c 94bc 684d c53c
00000220: 8989 fc3b f9e7 8cbc 9fa4 1e3c 9c78 bb3c
00000230: ade9 943c 078f 453c 6018 b8ba 63b0 3d3c
00000240: 6332 84bd 1842 6a3c d698 ca3b e474 a93c
00000250: 2b5b 953c 6761 1ebb 3ae9 9a3c 7d15 b03c
00000260: 1615 1bbc bae5 9c3b 6b5b 8c3c 6509 81b9
00000270: dd99 09bd 3ebe 193c e17a 5aba 47af 263c
00000280: 727e 2cbd fb81 a9bc 8ca8 263d da77 233c
00000290: 4fb7 14bb 85dc 13bd d2f3 4c3d 8bdd 473d
000002a0: a9b8 e3bb 23e2 b3bc e19e 393c e2e1 283b
000002b0: c1b8 7ebb 2d3e 6ebc e6b4 223c e422 6fbc
000002c0: 0049 4dbb 38a2 9ebd bcce e439 0efc a53b
000002d0: 8d4a d0bc a849 a13c 1a0f c4ba 3681 1f3c
000002e0: f12d ddbc f957 d7bc d367 c63c b849 6f3b
000002f0: 00e9 c5bb bce9 803a 7479 74bb 5b65 863b
00000300: 5b01 a73c fccf 82bd adcc 073c fa62 14bb
00000310: 2a4a 9abc b6a3 443c 3e79 d5bb d6c0 71bc
00000320: 2997 b43c fe22 98bc f474 24bc e4d6 e23c
00000330: 5447 dc3c be13 0cbc 6077 083c 15a3 e63c
00000340: 2fc6 7b3a e40e 8d3b f365 36bc 04ef 03bd
00000350: 39d5 553c ff4f 5bbd 07a7 7ebd fb53 94bc
00000360: 34a7 1e3c 6877 c0bc aa58 81bc c1eb a4bc
00000370: a3eb a73c 5c45 34bc 5040 e4bb 3f73 103c
00000380: d1a7 963c 2399 73bc 7b47 06bd d3fa e83b
00000390: e840 493c 5bec 2b3d 3532 c1bc 2f18 ebbc
000003a0: 6175 ebbb 9827 633c 9af2 153b 0447 873c
000003b0: 22c1 513d 5805 073d 5d9e babc 950e b23d
000003c0: 4e8e eebc 8236 cd3c 9a33 79bb a91e 9d3c
000003d0: 4585 92bb d18f 86bc 510b 2dbc c198 33bc
000003e0: 9a13 8dbd c19c 303d 9a5e 923c d82f 3fbc
000003f0: 0c5b 21bc 1e96 0ebd 44ba 01bd 014e 6dbc
-0.046826113 0.026314145 0.034854952 0.019408617 -0.031613693 0.033835433 -0.0013272329 0.0013021549
-0.019790696 -0.011668029 -0.0004730332 0.022092957 -0.034277815 0.02312565 -0.0005571387 0.012029441
-0.018941302 -0.0007161744 0.0011590816 0.0019145018 -0.049152628 -0.020789444 -0.001047912 -0.021181138
0.012929677 0.0053139827 -0.020813243 0.03442225 0.01745761 -0.007752125 -0.014614863 0.03232797
0.0045592613 0.011938233 0.026999779 0.014111279 -0.02009402 -0.015823904 0.012268436 0.033485357
-0.010347579 0.005573392 -0.025044004 0.002845103 0.032593567 -0.05093406 -0.022351062 -0.013102701
0.013512746 -0.024666514 -0.011796755 -0.015443689 0.0065049673 -0.0062350817 0.008103351 0.0058511384
-2.670272e-05 -0.020114355 0.0026848791 -0.06736659 0.037397176 -0.0135141695 -0.0052341404 -0.016337283
-0.010420926 -0.017151933 0.020188313 -0.015107093 0.009825487 -0.046267845 0.010874804 -0.013333299
-0.011379605 0.0012246423 0.027929196 -0.015043457 -0.010236982 -0.0019669167 -0.027427007 -0.018176543
0.015986813 0.07011623 0.012152583 -0.0029827743 -0.01613869 0.020372892 0.05071974 0.05318236
0.005840008 -0.017529277 0.0020147348 -0.015761487 -0.04297738 0.0061209546 0.018979494 0.021820553
-0.011613876 -0.011186257 -0.06471853 -0.046249516 0.003924108 -0.01981327 -0.0136106135 -0.010770597
0.009687373 0.007321953 -0.011096808 -0.029751413 0.05500052 0.021685686 0.029700737 0.006926055
0.016120207 0.027774405 0.04474953 -0.010520334 -0.013672309 0.010329845 -0.006277386 0.040283546
0.014828699 -0.005197626 -0.0024139239 -0.026589394 -0.00040260414 0.014851174 -0.0139889335 0.009769978
-0.012498169 0.007122057 -0.08085641 0.022896778 0.009117625 0.013011317 -0.018095253 0.024084762
0.007706825 -0.017200457 0.009682803 0.02288466 0.018177832 0.012058026 -0.001404535 0.011577698
-0.06454923 0.014297985 0.0061827702 0.02068562 0.018231949 -0.0024166943 0.01891004 0.021494621
-0.0094654765 0.0047881277 0.017133435 -0.00024611797 -0.033594 0.009383736 -0.00083343504 0.010173625
-0.042112775 -0.020691862 0.040688083 0.009977305 -0.0022692268 -0.036098976 0.050037213 0.048795264
-0.0069495034 -0.021958416 0.011329384 0.0025769402 -0.0038867446 -0.014541191 0.009930825 -0.014595721
-0.003132403 -0.077457845 0.00043641578 0.0050654477 -0.025426174 0.019688442 -0.0014958114 0.009735396
-0.026999446 -0.026287066 0.02421943 0.0036512446 -0.0060397387 0.0009835283 -0.0037303837 0.004101438
0.020386389 -0.06387326 0.008288545 -0.0022642002 -0.018834192 0.012001922 -0.0065146973 -0.014755448
0.022044735 -0.018571373 -0.010037649 0.027690358 0.02688948 -0.008549629 0.0083292425 0.028153935
0.0009604422 0.0043047536 -0.011132705 -0.032210365 0.0130513245 -0.053543087 -0.06217101 -0.018106451
0.009683419 -0.023494437 -0.015789349 -0.020131947 0.020498103 -0.011002865 -0.0069656745 0.008816539
0.018390568 -0.014868054 -0.032783013 0.0071099787 0.012283541 0.041973453 -0.02358351 -0.028698055
-0.0071856235 0.01386442 0.0022880198 0.016513355 0.051209576 0.03296408 -0.022780592 0.086941876
-0.02912059 0.025050405 -0.0038025142 0.019179659 -0.0044714534 -0.016425999 -0.01056178 -0.010961712
-0.06888504 0.043118242 0.017867375 -0.011669122 -0.009848367 -0.03481113 -0.031671777 -0.01448393

bias f4 [128]
00000000: f082 88bc e85d 05bc 159c 7d3c d60a 563c
00000010: 9e7d 49bb 7afc 993c d996 6538 8749 f53a
00000020: 921f ccbb 9109 90bc ba69 553c 5db2 7a3c
00000030: c4ed 1b3c b1f7 7ebc 75a6 a8bc 1c7a 87bc
00000040: 3822 a33c b4b0 e93a a8be 663c df8a 4a3c
00000050: 2e42 8abc 03c3 693c fea8 15bc 32c3 41bc
00000060: f38a 48bc ca5d 7b3c 7f95 383c d49c 963c
00000070: b507 0e3c 999c 22bc 0b0f 47bb c935 6fbc
00000080: 8328 7c3c c036 64bc 0d5d a5bc e7de 353c
00000090: 5ab5 afbc 6e77 16bb 4502 47bc 4250 7cbc
000000a0: 8e78 543c 78c2 8fbc 2303 98bb f548 af3b
000000b0: ca76 4d3c 31d0 5339 82ff 2e3a b7f4 933c
000000c0: b21d 9d3c 533c b0bc 264a 32bc 8532 923c
000000d0: f8e1 aeba a761 3539 7f90 13bb 7537 763c
000000e0: 2694 003c bdd4 adba c47b 3abc c384 ee3a
000000f0: 1317 2fbc bc0a 943c 5e34 603c 92f1 ab3c
00000100: 5904 ccbb 3d94 9cbc 08bf e039 2cd3 a5bc
00000110: 541c 30bc 4c97 a43c 72e2 8fbc b641 3fbc
00000120: 11a4 a53c c182 9abc a600 4a3c c8ef dd3b
00000130: ca66 9b3b 01b6 993c cc39 993b d96b 983c
00000140: df8b 443c df00 903b 6fd6 38bb 4dd7 463c
00000150: 7188 963c 7551 53bc c3d1 4cbc 1ff5 dfbb
00000160: ae9d 74bb 5338 893c 2554 9f3a f83a f03b
00000170: 07a2 453c a85f 863c 3962 1bb9 57dc 24bc
00000180: e7c9 c2ba 7404 7dbc e4a8 ac3b 9752 3c3b
00000190: bb4e 053c 1fac 3abc 69de 843b 4556 2b3c
000001a0: 4b9f 763c 3d8d d2bb 9da0 8dbc 7a9f a03b
000001b0: 2863 83bc 86df a93c f11e be38 95f5 273a
000001c0: 5bb9 a9bc f387 893b 43e0 433b 4c42 ab3c
000001d0: ff65 a4bc e3f9 9bbb 379b 37bb a7b6 a8bb
000001e0: 5775 703c c678 0d3a 55f6 c9b9 f89c 663c
000001f0: 2c4a 97bc b966 053c 3957 dfbb c8da 3dbb
-0.016663998 -0.008140065 0.015479107 0.013064107 -0.003074504 0.018797148 5.4738342e-05 0.001871393
-0.0062293494 -0.017582687 0.013025695 0.015301314 0.009517137 -0.015561984 -0.020587185 -0.016537718
0.019913778 0.0017829151 0.014083542 0.012362211 -0.01687726 0.014267686 -0.009134529 -0.011826323
-0.012240159 0.015342185 0.011266111 0.018385328 0.00866883 -0.009925031 -0.0030373957 -0.014600226
0.015390518 -0.013929069 -0.020185972 0.011100507 -0.02144878 -0.002295937 -0.012146537 -0.015399994
0.012968196 -0.017548785 -0.004639046 0.0053492733 0.012540529 0.00020200085 0.0006675647 0.018061025
0.019179199 -0.02151314 -0.010881936 0.017846355 -0.001334249 0.00017297883 -0.0022516546 0.01502787
0.007847821 -0.0013262253 -0.011382047 0.0018197525 -0.010686654 0.018071525 0.01368436 0.020989213
-0.006226104 -0.019113654 0.0004286694 -0.020242296 -0.010748941 0.020091675 -0.017564032 -0.011673382
0.020219835 -0.018861176 0.012329256 0.006772969 0.004742478 0.018763544 0.0046760794 0.018606113
0.0119962385 0.004394635 -0.0028203984 0.012136293 0.018375607 -0.012897839 -0.012501183 -0.0068346406
-0.003732543 0.01675049 0.0012155814 0.0073312484 0.012062556 0.016403034 -0.00014818543 -0.010062299
-0.0014861197 -0.015442956 0.005269157 0.002873575 0.008136447 -0.011393576 0.0040548337 0.01045758
0.015052627 -0.0064255283 -0.0172885 0.0049018236 -0.016038492 0.020736467 9.065669e-05 0.0006407139
-0.020718267 0.0041971146 0.002988831 0.020905636 -0.020068167 -0.0047600134 -0.00280161 -0.005148727
0.0146764135 0.000539672 -0.0003852124 0.01407551 -0.018467985 0.008142167 -0.0068158177 -0.0028969515

weight f4 [128]
00000000: af3c 5f3f 9070 6f3f 7892 5e3f 3a2f 653f
00000010: a5eb 803f a959 853f d01f 5c3f 07ad 663f
00000020: 4efd 5b3f b13a 5c3f 923f 803f 169c 5e3f
00000030: 18a5 653f 133e 673f 113e 663f 25ef 803f
00000040: e7e2 8a3f 05fa 693f 3a40 5c3f ea3e 643f
00000050: 41ac 6a3f 4759 6a3f 552a 6d3f 389c 583f
00000060: 4499 4f3f fd93 803f 76af 673f 824e 8c3f
00000070: 8213 613f 4e46 663f e637 623f 50c1 5e3f
00000080: 7c54 603f 94f1 663f 90c9 603f 97ce 5c3f
00000090: 62d7 613f f65b 4a3f 965d 853f ac93 803f
000000a0: 46b8 703f 4052 743f b4e6 7f3f a609 803f
000000b0: 8a9b 723f 9af5 603f b97d 553f 9d7a 553f
000000c0: ca4d 563f 4c00 5f3f 637c 603f eed9 5c3f
000000d0: d95d 603f de37 6b3f fcb9 623f b96f 643f
000000e0: 09b2 583f 8545 6a3f 24dc 883f 6a4e 693f
000000f0: 4e2a 5e3f bd0b 8c3f f68d 533f 5ab6 5c3f
00000100: c03f 853f fd04 653f 9e66 663f 21f3 633f
00000110: 03d9 543f 9ca9 983f e8bd 883f f85d 623f
00000120: c2da 923f 194c 583f 9539 663f 7494 963f
00000130: 977e 8f3f 9f75 803f 4795 633f 10c4 5e3f
00000140: dabf 6a3f 96f5 5e3f bedd 823f 3790 5e3f
00000150: 9309 693f 83dc 6b3f 0fae 5c3f 4aaf 913f
00000160: b4b1 583f 1b2b 823f 22e6 583f 538f 5f3f
00000170: 9297 4c3f 4e4e 603f 766a 6d3f 60aa 803f
00000180: ed61 863f a728 4f3f 79b5 5a3f f73e 693f
00000190: 5e74 6b3f ea4b 633f 7ca2 6a3f 2e36 693f
000001a0: 8f53 5d3f 9920 5b3f 0396 633f bfe9 653f
000001b0: af66 633f db80 813f 02dd 963f 8d00 573f
000001c0: 0606 6f3f 18e1 5d3f 8eaf 813f 2457 5c3f
000001d0: 57f3 643f 53c5 863f ab5b 673f 86ff 663f
000001e0: a488 883f bcf0 683f b670 803f b8ea 563f
000001f0: 5b15 633f 734f 553f 3232 823f 2677 633f
0.8720197 0.9353113 0.86942244 0.89525187 1.0071913 1.0417987 0.8598604 0.9010777
0.8593339 0.86027056 1.00194 0.8695692 0.8970504 0.9032909 0.89938456 1.0072981
1.0850495 0.91397125 0.860355 0.891585 0.9166909 0.91542476 0.9264272 0.8461337
0.8109324 1.0045162 0.9050211 1.0961459 0.8792039 0.89951026 0.88366544 0.8701372
0.8762891 0.9021237 0.8780756 0.8625273 0.88219273 0.7904657 1.0419185 1.0045066
0.9403118 0.95438004 0.999614 1.0002944 0.94768584 0.8787476 0.8339496 0.8339022
0.83712447 0.8710983 0.876898 0.86270034 0.876432 0.9188212 0.8856504 0.89232975
0.8464666 0.9151233 1.0692182 0.91135275 0.867833 1.0941082 0.8263849 0.86215746
1.041008 0.89460737 0.9000033 0.8904286 0.83143634 1.1926761 1.0682955 0.88424635
1.147301 0.84491116 0.89931613 1.1764054 1.1210507 1.0035895 0.88899654 0.8701792
0.9169899 0.87093484 1.022392 0.86938804 0.91030234 0.9213335 0.8620309 1.1381619
0.84646153 1.0169405 0.84726155 0.8732807 0.7991878 0.87619483 0.9274057 1.0051994
1.0498635 0.80921406 0.85433155 0.911117 0.9197444 0.8878771 0.9165418 0.91098297
0.86455625 0.85596615 0.88900775 0.89809793 0.8882856 1.0117449 1.1786196 0.83985215
0.93368566 0.8667159 1.01317 0.86070466 0.8943381 1.0528969 0.9037425 0.9023365
1.06667 0.9099233 1.0034397 0.839519 0.8870446 0.83324355 1.0171568 0.8885368

bias f4 [128]
00000000: b659 28be f6cf b1bd ea95 05be caf0 22be
00000010: 87a9 8fbd 388c 84bd 23a8 37be fd5c 07be
00000020: 4287 2ebe 019c 03be 1991 4abe c240 31be
00000030: 2851 10be b8d0 0fbe d0d0 17be d8e4 7cbd
00000040: fff5 b4bd 4d82 03be 0324 2ebe f560 afbd
00000050: 228d 6abd cb84 17be 64c5 26be a2ca 17be
00000060: bee4 2ebe d9d3 f3bd 696a b8bd 8f08 93bd
00000070: 56fd f2bd f9e1 cabd 93c7 33be 3559 3dbe
00000080: 2260 13be 5fbb bbbd 511c fcbd 0204 12be
00000090: c907 07be 724a 42be d7d6 12be af88 0ebe
000000a0: 5052 c3bd 12a9 0ebe acf6 05be 4bcb 08be
000000b0: 503a 46bd 7f05 6cbe f7bc 21be 57a9 24be
000000c0: a151 43be 820b 1dbe 6fe1 79be 76f8 2cbe
000000d0: 3933 20be 4f6f dbbd bbc5 19be 9521 e3bd
000000e0: 6982 fdbd f55f d7bd 31db 40be 6167 c6bd
000000f0: 7657 58be de4b 03be 63b0 32be 92e7 55be
00000100: c8c2 d3bd 067c f4bd 2ff3 54be 9050 06be
00000110: b5d9 30be 5998 fcba 5efa 49be a322 e2bd
00000120: 5274 4ebe e8e1 19be d327 2abe 244a c2bd
00000130: f372 07be 85e6 e7bc e374 0dbe 3dd7 27be
00000140: 9cc7 d9bd 4791 d9bd 05c6 a1bd 21fc 26be
00000150: 4090 dcbd 46ca 59bd ebc7 29be af47 27be
00000160: 5b79 0cbe 4420 b8bd 3f22 1ebe 558d 2ebe
00000170: c7d1 6dbe c443 bebd 886d 09be 305e 67bd
00000180: 5f53 f1bd d2eb 44be 712f 08be e833 1fbe
00000190: 1785 1fbe 1404 c6bd 792c f2bd 5786 5abd
000001a0: e1c1 30be 83fe 32be 4b27 45be 6416 afbd
000001b0: 15c5 5fbe a8f8 ffbd c5e1 3fbe 3d74 36be
000001c0: d7e0 45be 4d39 3dbe cdb7 17be 2ecf 36be
000001d0: 484c 34be 2374 11be b7a1 05be f8e7 1bbe
000001e0: 2311 67bc 9b15 03be 62ff 9fbd 7de7 41be
000001f0: b626 28be 085a 4ebe 170f e8bd ff27 9dbd
-0.16440472 -0.086822435 -0.13045469 -0.15912166 -0.07014757 -0.06472057 -0.17935233 -0.13219066
-0.17043784 -0.1285248 -0.19781913 -0.1730986 -0.14093459 -0.14044464 -0.1482575 -0.06174168
-0.088359825 -0.12842675 -0.17005925 -0.08563415 -0.0572635 -0.1479675 -0.16286236 -0.14823392
-0.17079446 -0.11905641 -0.09004671 -0.07179367 -0.11864726 -0.09906382 -0.175566 -0.18491061
-0.1439214 -0.091665976 -0.123100884 -0.14259341 -0.13186564 -0.18973711 -0.14339767 -0.13919328
-0.09537184 -0.13931683 -0.13082379 -0.133588 -0.048395455 -0.23048972 -0.1579474 -0.16080223
-0.19074108 -0.15336421 -0.24402402 -0.16891655 -0.1564454 -0.1071459 -0.15016834 -0.1109039
-0.123783894 -0.10516349 -0.18833615 -0.09687687 -0.21127114 -0.1282191 -0.17450099 -0.20889118
-0.10339886 -0.11937718 -0.20795892 -0.1311667 -0.17270549 -0.0019271477 -0.19724414 -0.11041763
-0.2016156 -0.15027583 -0.16616754 -0.094867975 -0.13227443 -0.028308162 -0.1381412 -0.163907
-0.106337756 -0.106234126 -0.07899097 -0.16307117 -0.10769701 -0.05317142 -0.16580169 -0.16335939
-0.13718168 -0.08990529 -0.15442751 -0.17046101 -0.23224555 -0.09290269 -0.13420689 -0.05648631
-0.1178348 -0.19230583 -0.13299347 -0.15547144 -0.15578113 -0.096687466 -0.11824889 -0.053350773
-0.17261459 -0.17479901 -0.1925327 -0.085491925 -0.21852525 -0.12498599 -0.18738468 -0.17817779
-0.19324051 -0.1847889 -0.14816208 -0.1785247 -0.17607224 -0.14204459 -0.1304997 -0.15225208
-0.014103207 -0.1280121 -0.07812382 -0.18935962 -0.16421017 -0.20151532 -0.11331003 -0.07673644

running_mean f4 [128]
00000000: e46d 933c dbe7 8fbd dc0c cdbd ea97 0cbc
00000010: 08de 6cbd 1ec3 273d 181a 90bd 74a2 973d
00000020: 7e0f 4bbd c52e dabd df47 c63c f232 cc3b
00000030: 2e21 7ebc d092 b7bd ce1b ef3b 5960 07be
00000040: 696b 5e3e 1f6a e03c 709f b03d e12b 11be
00000050: 35e8 77be 9fcb 233a e84d 78bd 3e6d 7cbc
00000060: 594b 65bd 01ca 393e ebca 3abd 8ce4 273e
00000070: 8bdb d7bd 4f4c 36be ead6 723d f37f 8e3c
00000080: 23ac eabc 6414 01be 8379 bdbd 1c0e 7bbd
00000090: d8a5 00be a2ec dcbc 2309 a33b 2063 c53c
000000a0: 5ee3 87bd fb48 cc3d 0d80 b03c 6d26 92bd
000000b0: 583d b7bd 19b8 e53d f110 9d3c d195 223d
000000c0: 87db 87bd 6c30 f3bb 020a 653d 60a4 3b3d
000000d0: 7035 2a3d a94e a0bb 30ca b1bd 793c d03c
000000e0: 0df0 d4bd d97b 573e 88c7 e93c e06f e8bd
000000f0: 290e d1bc 9c4d 06bd 4469 3bbd decc a13d
00000100: d2d4 80bb d253 a1bd 49bd 9f3d 632e ccbd
00000110: 4ace 4fbd 1a94 863e 8491 aabb dd8f f6bd
00000120: e81c 013e d152 15be 4338 943d f2c6 61bc
00000130: c346 e43d 1c44 3bbe 1220 ce3d 3c4d c73d
00000140: 67c3 e43b 625b f1bd 1a2d 853e 040b 5c3d
00000150: f8ad 12be 24e6 2fbe baa1 cfbc 574c 833d
00000160: fb15 afbd 03d2 8c3e a03c 8cbd acd0 b5bc
00000170: 196f 1abd 3168 c3bd 467b b8ba e5da 2fbe
00000180: 7e6d df3d 00f7 bebd c27f f0bd bffc af3d
00000190: 31b0 0e3e 0dc4 2ebe 8a44 303e e615 60be
000001a0: 037e 513d 12a4 62bd 5ed6 e33c 7aab f0bd
000001b0: f4e7 83bd ebf7 57bc 2b1a 3b3d 84a9 35bc
000001c0: d9df 8f3c ac52 013d dac6 1d3e 8976 373d
000001d0: 4967 a23c 873e 6f3c 8b06 5c3d 2442 1c3e
000001e0: eff8 60bd ad5f ac3c 4dd8 303e 104d f3bc
000001f0: aa57 4bbd 89a9 7f3a c3ac 16be 0ee9 01be
0.017996736 -0.07026645 -0.10012218 -0.008581141 -0.057828933 0.040957563 -0.07036227 0.07404032
-0.04957532 -0.10653452 0.024204193 0.006231659 -0.01551084 -0.08963549 0.0072970157 -0.13220347
0.21720661 0.027394352 0.0862416 -0.14176895 -0.24209674 0.00062482985 -0.060621172 -0.015406905
-0.05598006 0.18143465 -0.045603674 0.16395777 -0.105399214 -0.17802547 0.05928699 0.017394995
-0.028646534 -0.12605435 -0.09251692 -0.061292753 -0.12563264 -0.026968304 0.0049754544 0.024095118
-0.06635164 0.099748574 0.021545434 -0.071362354 -0.08947247 0.112167545 0.019173117 0.039693657
-0.066336684 -0.007421544 0.055917747 0.045811057 0.04155487 -0.0048921895 -0.08681142 0.02541946
-0.103973486 0.21043338 0.028537527 -0.113494635 -0.025519447 -0.032788858 -0.045754686 0.079004034
-0.00393162 -0.078773156 0.07799775 -0.09969785 -0.050733842 0.26284868 -0.005205335 -0.120391585
0.12608683 -0.14582373 0.072372936 -0.013780342 0.11146309 -0.182877 0.10064711 0.09731528
0.0069813016 -0.11785008 0.26010972 0.053721443 -0.14324176 -0.17177635 -0.025345672 0.06411045
-0.08549114 0.27503976 -0.06847501 -0.022194229 -0.037703607 -0.09541357 -0.0014074824 -0.17173345
0.10909556 -0.09324455 -0.11743118 0.08593129 0.13934399 -0.17066975 0.17213646 -0.21883354
0.051145565 -0.05533225 0.02781218 -0.117514566 -0.06440726 -0.013181667 0.045679253 -0.011087779
0.017562794 0.031572983 0.15407887 0.04479078 0.01982464 0.01460231 0.053717177 0.15259606
-0.0549249 0.021041716 0.17270012 -0.029699832 -0.04964415 0.0009752741 -0.14714341 -0.1268656

running_var f4 [128]
00000000: f9e4 a73c faa8 0a3b 590e 333d 1a05 233d
00000010: 4d24 af3a c713 d73a 78fe 6d3d 83bb f93b
00000020: 5605 aa3d 3dbb cf3c 95e7 983a b8eb 233d
00000030: 70c3 2d3d 273e 163b f630 073c af64 ad3a
00000040: 8654 d53a 93c1 a43c f985 0d3d a15b 483d
00000050: ca6b 7c3b faae 253b d744 ad3b 9f0c 153d
00000060: d5bc 8b3d 30a3 203b 3db8 5f3d 5438 af3a
00000070: 9871 4f3d 6523 193d 0633 453d 1716 d53c
00000080: 98c5 013d d4cb 213d 2fd1 883d e3c1 733d
00000090: 7036 933d 73f5 633d 45d1 903a 86c1 d73a
000000a0: 29e1 d13a 9d48 6a3b e72d 0d3b e8f3 4e3a
000000b0: 776f 4c3b fbef 2d3b ad8b 5e3d 5222 ca3d
000000c0: 915d bf3d 99c2 583c ba85 b23a a188 853d
000000d0: 869b 033d ebc1 f03c 11fa 1f3c 6998 3e3d
000000e0: d707 043e 6746 153c c82e 653a 7ee8 3d3d
000000f0: efbe 763b 0d8b 8d3a 7218 c73d ac09 b13b
00000100: a0fb 693a c298 113d 9625 4d3c 4ee4 183d
00000110: c8e3 833d b274 673a 4722 af3a d15d 1c3d
00000120: 8e3c cc3a 595a fe3d f29f 1a3d 0fad 923a
00000130: 435c b53a 60ec dd3a e51e 2c3c 1374 253d
00000140: f950 6d3b 4d54 2d3d ca92 a13a 0a8e 833c
00000150: aa41 3f3b 0fd7 6f3b cc6d 7e3d 114b b53a
00000160: 0e9f a63d 2676 1d3b df1f 543d a221 b43c
00000170: 9d8e 943d 3798 c33d 1188 303b 6b9a bb3a
00000180: 204e 923a 2502 6c3d d229 f03d a36a f03b
00000190: 2676 223b 6819 373d 72cf 823b fa1d b83d
000001a0: e5df 2b3d 1274 773d bd49 a03b 1089 313d
000001b0: 3c52 1d3b 0d2c d13a 41bc 993a 28b0 7b3d
000001c0: ea9b a63a a6a9 0f3c 857d 103b 913c ea3c
000001d0: 8df0 3c3b beb3 cf3a 052a 3d3c 4dd4 0f3c
000001e0: bc8a ac3a caf3 263b e35b b33a 157d 6a3d
000001f0: 5a79 c53c 6078 553d 5947 053b 017e 943d
0.020494925 0.0021157847 0.043714855 0.039799787 0.0013362259 0.0016409092 0.05810401 0.00762123
0.08301799 0.025357837 0.0011665697 0.04001972 0.04242271 0.002292523 0.008251419 0.0013228859
0.00162758 0.020111835 0.034551594 0.04891551 0.0038516396 0.0025281296 0.0052877474 0.03638899
0.06823126 0.002451133 0.054619063 0.0013368228 0.05064544 0.03738727 0.048144363 0.02601151
0.03168258 0.039501026 0.066805236 0.059511077 0.071881175 0.055654 0.0011048695 0.0016460873
0.0016012538 0.0035748847 0.0021542253 0.0007894621 0.0031194368 0.0026540745 0.054332424 0.09869827
0.09344018 0.013229989 0.0013620176 0.065202005 0.03213074 0.029389342 0.00976421 0.04653207
0.12893616 0.0091110235 0.00087426277 0.0463643 0.0037650426 0.0010798887 0.097214594 0.0054027643
0.00089257397 0.03554607 0.012521168 0.037327103 0.0643993 0.00088293396 0.0013361656 0.038175408
0.0015582012 0.12419576 0.037750192 0.0011190491 0.00138367 0.0016931407 0.010505413 0.0403939
0.0036211594 0.042316724 0.0012327072 0.01605894 0.0029183426 0.003659669 0.06211643 0.0013831576
0.08135806 0.002402672 0.051788207 0.021988694 0.07253764 0.09550517 0.002693657 0.0014312988
0.0011162199 0.057619233 0.117267266 0.007336931 0.002478966 0.044701964 0.0039920146 0.089900926
0.04196157 0.060413428 0.004891603 0.043343604 0.0024005314 0.0015958563 0.0011729078 0.061447293
0.0012711261 0.008768475 0.0022047472 0.028593333 0.0028829903 0.0015846414 0.011545663 0.008778644
0.0013163905 0.00254749 0.0013684001 0.057248194 0.024105716 0.05211675 0.0020336716 0.07250596

weight f4 [128, 64, 4, 4]
00000000: 1e9f cd3c 24ee 5e3d bc8e f43c 5b04 0cbc
00000010: 6b85 e4bb 0c59 29bd 6ee6 9a3b e2ce f5bc
00000020: ec04 fcbc 0b5e 07bd 32a6 db3c 8ed0 2c3c
00000030: 3b76 353c f69e 8e3b f84b 863c cdcf 13bc
00000040: a34e 123c 5197 48bc c3df 2fbd c7d9 e6bc
00000050: 3bd6 37bd 7581 d63b c27d 31ba ab4f f43c
00000060: e451 2dbd 7d09 0fbd d994 e6bb dba7 f4bc
00000070: 2ae4 55bc 5a4d 73bc 3fcb 123c 248d 813c
00000080: be36 5cbc db70 463d 8cea 3cbc b130 36ba
00000090: cb62 62bc c773 d0bc 3d47 cbbc 0a0d 4abc
000000a0: f515 b43c c481 92bc aec9 193d cd89 10bd
000000b0: 589f 0c3d 4f5c b0bc 1947 163d 467e a8bc
000000c0: ffb2 063d 1a43 f63b 4c93 3e3d f16d 0abd
000000d0: 7444 5ebc 3d60 583c 7993 2c3c 7ec5 c73c
000000e0: db35 be3c ff17 bb3c 93e8 fcbc 6504 0b3c
000000f0: 3634 2f3c 1d5b 323d 370d 243c 51f1 4d3c
00000100: 41b0 adbc 26ec e73c 2d58 5fbd 0812 b2b6
00000110: 86ab 27bc 8a52 28bd c15a 07bd 0faf 073d
00000120: 6091 d93c 2390 cbbc 1d00 fcbb b7fa a23c
00000130: b6f3 c4bc 9aed c5bc 76d4 d83a 4196 c7bb
00000140: 61c9 eabc 18c0 f2bc 99c2 843c 0223 16bd
00000150: 62b9 263d dbb2 a7bb 7fa1 94bc 9def babb
00000160: 1fc2 ed3c ed58 433b 31cb 953c 1575 313c
00000170: 7afa 89bc b4d6 bfbc 0d00 923c 032c b2bc
00000180: e0ab dbbc 6110 93bd 06ab ca3b 1ec3 b0bc
00000190: a8b9 063d 314b 19bc a581 6ebb fc6f c1bc
000001a0: 1a88 12ba bb52 9eba 5a96 5f3a 1b54 123c
000001b0: 6528 153d f40e 8fbc 48d8 04bd 7449 b4bb
000001c0: 084a 9a3c d027 313d c898 2cbd f58a 61bb
000001d0: 4b1e c9bb 1e2d cabc ae88 2e3c e90b a9bb
000001e0: e6ca 1bbb c889 0b3d 48a6 543d e8e5 41bb
000001f0: 2ee2 0a3d 28e1 0d3c eddd 433d 1aa7 e93c
00000200: 2bf4 d0bc 0041 943c 9296 da3b 7f9c a83c
00000210: e297 76bc 072f eb39 d719 733d 843a 1fbd
00000220: 70c6 87bb 72f0 53bd 7ed3 81bc df43 893b
00000230: 2750 dcbc d1b1 953b d0a0 1238 221c 26bd
00000240: 47b7 c63a 17b4 893b 1421 58bd a3a1 3dbd
00000250: b6e1 0cbc c650 20bc 1851 573d 72ed 59bc
00000260: 4821 f6bc 2794 113d 5f36 623c 967c 1fbd
00000270: 1874 b03b 733a 51bd 60a7 b9bc 2b74 7b3b
00000280: eda7 e63c 32aa 303d d4c1 4fbd a452 24bd
00000290: c952 05bd 1b17 69bc a7f5 883c f2df 0a3d
000002a0: 3f8b 1c3d c00e 1e3c 4151 f4bc 13de 243c
000002b0: f1db 8d3c 944d 713c a7a7 053d 9ec6 29bd
000002c0: ad02 07bc 0e10 5ebc da86 37bb 66de e43c
000002d0: 512d 393c 1cbe 6abd 0c44 0cbd b899 babc
000002e0: e34d 54bc 8269 d2bc 3a52 d43c e0a7 2dbd
000002f0: 6e79 06bb f836 a1bc 4d3b 24bd 02d2 d1bc
00000300: 907f 213b 1d9d 87bb d554 133d f865 5ebc
00000310: 3ec0 b6bc c133 ce3a f1c7 73bc c4da cb3c
00000320: 8b54 5bbc 5a01 1fbc aa35 a53b 69c2 3d3b
00000330: 864a 953c 023f 143c 8f9e a03b 4e9f 9abb
00000340: a17d e63c bfd5 ea3c c78c a3bb 55ac f0ba
00000350: f44d 71b9 0325 a4bb 4572 193c 380d 1e3c
00000360: 656d 78bc aee5 2a3d e419 853d a498 0abb
00000370: fa18 c53b 356d 88bc c24e 07bd fd18 813c
00000380: 184d 18bc 67c5 afbc 25d0 28bd d598 18bc
00000390: 18be 49bc 8d88 c8ba d194 ee3c 3dec 12bc
000003a0: d820 28bd 7950 b3bc 2231 e9bc 0483 22bc
000003b0: 29b3 703d 4969 353c 027f 103d e3b7 313b
000003c0: 0727 723c 12a6 52bb 583e de3c 4a5d 86bd
000003d0: e0db 603d 3394 d7bb 5dad af3c ba86 d63c
000003e0: a5b0 243d 9f2c abbc 2d0c c9b9 eb97 533c
000003f0: 2ad2 233c 5dea 8aba a61c 04bc 7ba3 013c
0.025100287 0.054426327 0.029853217 -0.00854596 -0.0069739125 -0.041344687 0.0047271764 -0.030005876
-0.030764066 -0.03304867 0.026812647 0.01054777 0.011075552 0.0043524457 0.016393647 -0.009021712
0.008929881 -0.012243108 -0.042938005 -0.028180016 -0.04488204 0.006546194 -0.00067707535 0.029823145
-0.042314425 -0.034921158 -0.007036787 -0.029865196 -0.013054887 -0.014849985 0.00895959 0.015814371
-0.013440786 0.04844747 -0.01153053 -0.00069500046 -0.013817499 -0.025445832 -0.024814242 -0.01233221
0.021983126 -0.017884143 0.037545852 -0.035287667 0.03433165 -0.021528391 0.036688898 -0.020568024
0.032885548 0.0075153233 0.046527192 -0.033796255 -0.013566125 0.013206539 0.010533207 0.024386164
0.02321904 0.02283859 -0.030872619 0.008484934 0.0106936 0.043543924 0.010012916 0.012569741
-0.021202208 0.028310847 -0.05452745 -5.3069125e-06 -0.0102337655 -0.04109434 -0.033045534 0.033125933
0.026558578 -0.024849003 -0.007690443 0.01989494 -0.024041992 -0.024161149 0.001654281 -0.0060909097
-0.028660478 -0.029632613 0.016206073 -0.03665448 0.04070414 -0.005117757 -0.018143414 -0.0057048337
0.029023228 0.0029807643 0.018285366 0.010831137 -0.01684307 -0.023417808 0.01782229 -0.021749502
-0.026815355 -0.071808584 0.0061849384 -0.021577414 0.0328919 -0.009356306 -0.0036393192 -0.023612969
-0.0005589739 -0.0012079099 0.0008529179 0.008931185 0.036415476 -0.017463185 -0.032432824 -0.0055019204
0.018834129 0.04325086 -0.04213789 -0.00344151 -0.0061376444 -0.024679717 0.010652704 -0.0051588905
-0.002377206 0.034066945 0.05191639 -0.0029586498 0.033907108 0.008659638 0.047819067 0.028522063
-0.025507053 0.0180974 0.0066707814 0.020582436 -0.01505086 0.0004485773 0.059350815 -0.038874164
-0.0041435286 -0.05174298 -0.015847918 0.004188999 -0.026893688 0.0045683165 3.495888e-05 -0.040554173
0.0015160822 0.0042023766 -0.05276592 -0.046296727 -0.008598736 -0.009784883 0.05256757 -0.01330124
-0.030045167 0.03554168 0.013806908 -0.038937174 0.005384933 -0.051081132 -0.022662818 0.0038368802
0.028156245 0.04313106 -0.05072196 -0.040117875 -0.032549653 -0.0142267 0.016718699 0.033904977
0.038218733 0.009647071 -0.029823901 0.010062712 0.01731679 0.014727969 0.03263059 -0.04144918
-0.008240384 -0.013553632 -0.0028003962 0.02793808 0.011302308 -0.05731021 -0.034244582 -0.022778377
-0.012958023 -0.025685076 0.025918115 -0.042396426 -0.0020519155 -0.019679531 -0.040095616 -0.025612835
0.0024642684 -0.0041386024 0.035969574 -0.013574116 -0.022308465 0.0015731977 -0.014879213 0.024884589
-0.013386856 -0.009704912 0.0050417976 0.0028954989 0.018224012 0.009048225 0.004901714 -0.0047186976
0.028136076 0.028666375 -0.004991147 -0.0018361906 -0.00023012591 -0.005009295 0.009365623 0.009646706
-0.0151628 0.041722946 0.06499079 -0.002114811 0.0060149403 -0.016653636 -0.033034094 0.015758986
-0.009295724 -0.021456433 -0.041214127 -0.009313782 -0.012313388 -0.0015299484 0.029123696 -0.008967456
-0.041046947 -0.021888958 -0.028465811 -0.009918932 0.05876461 0.011072465 0.035277374 0.0027117662
0.014779813 -0.0032142443 0.027129337 -0.06560762 0.05489719 -0.006578946 0.02144497 0.02618729
0.040207524 -0.0208953 -0.0003834678 0.012914638 0.0099988375 -0.001059841 -0.008063471 0.007912512

bias f4 [64]
00000000: bf08 4a3b b4ae 0c3c 7644 42bc c1e5 963b
00000010: c56b a7bb a86b 3bbc 33ed f33c bcf3 ed3c
00000020: af99 39bc 9691 f8bc 0739 843c 66aa dd39
00000030: a671 ad3c 2398 25bc 4c9b e638 1e5a e83c
00000040: 337c 55bc 0849 173c fe27 f83c 9f60 a2bc
00000050: b55a f8bc f391 81bc 1a10 123b 9e59 60bb
00000060: 4f82 653c f2a1 e9bc 2d20 92bc 19db 41bc
00000070: 73c4 8f3b 1bbf e73c 5194 86bb 286b 373b
00000080: fd71 c53c 7cad d1bc e25a 88bc cc93 d5bc
00000090: b865 203a 438f e1bc 9b9a ce3c a47a 2c3b
000000a0: f525 31bc 1f76 8a3c eee9 4fbc 7538 23bc
000000b0: b56c 9a3c 8eb7 e23b f5b1 9c3c 3343 193c
000000c0: d536 98bc 4f42 f93c 7511 bdbc db01 563a
000000d0: 7189 cfbc 0c66 37ba f174 4a3c 0f6b 9dbc
000000e0: 2ff1 a13b 543f 7c3c 1cc6 cabc d27a ec3c
000000f0: 55ef f5bc 627c 61bb 215d adbc 42ba b9ba
0.0030827967 0.008586574 -0.011857143 0.0046050255 -0.0051092827 -0.0114392415 0.029776191 0.029046886
-0.011328145 -0.030342858 0.016140474 0.00042279362 0.021172356 -0.010107073 0.00010996181 0.028363284
-0.0130301 0.009233721 0.030292507 -0.019821463 -0.03031669 -0.015816664 0.002228743 -0.0034233104
0.014008119 -0.028519604 -0.017837608 -0.011832022 0.0043874322 0.028289368 -0.004107036 0.0027987454
0.024102205 -0.02559542 -0.016644899 -0.026071452 0.0006118673 -0.027534133 0.025220206 0.0026318217
-0.010812272 0.016902028 -0.0126900505 -0.009962191 0.018850664 0.006918854 0.019127825 0.0093544
-0.018580833 0.030427126 -0.023079613 0.00081637286 -0.025334092 -0.0006996102 0.012356983 -0.019216089
0.0049420814 0.015395958 -0.024752669 0.028867159 -0.030021349 -0.0034406413 -0.021162571 -0.0014169889

weight f4 [64]
00000000: cf0a 853f aef8 7f3f bccf 763f fdd2 613f
00000010: 2912 7d3f 88f0 643f 0d6c 7f3f 6f8b 7f3f
00000020: 7475 683f 825b 813f 22cb 953f 04bb 793f
00000030: 0618 7a3f 659d 643f e8a7 703f edef 6e3f
00000040: 8f18 813f 3d4c 8d3f c460 7e3f 9d27 753f
00000050: 8270 753f f2ba 853f daab 6a3f 639f 753f
00000060: 5744 7a3f 776d 813f 4762 743f 3c6a 803f
00000070: 73a3 723f 125f 6b3f 7607 6c3f efc4 7d3f
00000080: a461 5c3f fd91 653f 177a 913f 1a2a 763f
00000090: b3d6 823f 0995 753f 8ff7 7f3f c7d1 6c3f
000000a0: fb7a 733f 937e 6a3f 9c75 613f b472 803f
000000b0: a080 683f b870 6c3f 0465 773f cf74 793f
000000c0: 9c59 7a3f 20da 6f3f 64c4 773f 0b27 653f
000000d0: 2fac 8e3f b091 753f e7a3 673f 416e 773f
000000e0: 7220 733f 6110 6d3f a962 803f 0f8d 793f
000000f0: 6c71 773f 46d9 833f b5fd 803f d991 703f
1.0393924 0.9998883 0.9641073 0.8821257 0.98855835 0.8942952 0.9977425 0.99822134
0.9080422 1.0106051 1.1702616 0.9755099 0.97692907 0.89302665 0.94006205 0.9333485
1.008562 1.1038891 0.993664 0.9576357 0.958748 1.0447676 0.91668475 0.9594633
0.9776053 1.0111531 0.9546246 1.003242 0.94780654 0.9194194 0.92198884 0.9912862
0.8608649 0.89675885 1.1365384 0.9615799 1.0221771 0.95930535 0.9998712 0.92507595
0.9510953 0.91599387 0.8807008 1.0035005 0.90821266 0.92359495 0.9663851 0.9744386
0.97792983 0.9369221 0.96784043 0.895127 1.1146296 0.95925426 0.9048447 0.9665261
0.9497138 0.9260312 1.0030109 0.97480863 0.96657443 1.0300682 1.0077425 0.93972546

bias f4 [64]
00000000: e713 7fbe bdc7 97bd a135 ccbd 0e0b 1dbe
00000010: c9fc 9ebd f254 16be 7d5f 15be 2c1f 4fbe
00000020: 124d 9bbd c3c4 23be 6385 19be fd9f 3fbe
00000030: 5fde 15be 63d6 21be 9b1c c4bd bd92 21be
00000040: 966f a9bd b97e 3abe 988e 92bd fa79 24bd
00000050: e9e6 b3bd 53ce a8bd 0611 c2bd ce3e 73be
00000060: d098 c6bd b2e5 f3bd c018 19bd e7c7 19be
00000070: 0dbd bfbd afc1 d4bd dc53 96bd a47f e1bd
00000080: f0c3 18be 612d 06be e50b cfbd 410c 19be
00000090: c0ec 3cbc 2e22 aebc c20c 22be 7e07 a1bd
000000a0: 68f2 b6bd 0f37 a2bd 7747 29be 26d2 54be
000000b0: 601c 1bbe ed65 a8bd 8b6f 12be 8faa acbc
000000c0: 78e4 0bbe e86e acbd 54b7 fabd fd09 14be
000000d0: 34dc 87bc 0e4f 24bd 40b6 34be 3bf0 48bd
000000e0: 8279 00be e9af 1abe 4025 24be 0379 2bbe
000000f0: e7da 93bd dd15 1cbe e0b1 0cbe 269d e7bd
-0.24909936 -0.07411144 -0.099711664 -0.15336248 -0.07763059 -0.14680842 -0.14587207 -0.20226735
-0.07583059 -0.15993027 -0.14992289 -0.18713374 -0.14635609 -0.15804438 -0.095757686 -0.15778632
-0.082732365 -0.18212403 -0.07156104 -0.04015539 -0.08784277 -0.08242478 -0.09475903 -0.23754427
-0.096971154 -0.11909045 -0.03737712 -0.15017663 -0.093622304 -0.10388505 -0.07340214 -0.11010674
-0.14918494 -0.13103248 -0.101096906 -0.1494608 -0.011531055 -0.021256533 -0.15825179 -0.07862757
-0.08932954 -0.07920658 -0.16531168 -0.2078329 -0.15147543 -0.08222566 -0.14300363 -0.021077422
-0.13661373 -0.08419591 -0.12241998 -0.14456935 -0.016584493 -0.040114455 -0.17647648 -0.049057227
-0.12546352 -0.15106167 -0.16029835 -0.16745381 -0.07219487 -0.15242715 -0.13739729 -0.113092706

running_mean f4 [64]
00000000: fab1 a5bc 4777 00bf 42f8 8cbe 14a5 e0bd
00000010: 9db2 c33a 427c 54be d7df 95be f379 de3e
00000020: d45e d1be 177c a7be 00c8 fabd 5e7f 0ebf
00000030: cbba f4bd b443 853e 1514 87be 0041 983d
00000040: 6e4b b1be 34d5 4abf 15a4 6ebe d08c 11bf
00000050: f088 61be fd03 ebbe 058a bdbd d37f e63e
00000060: d9ec 12bf 4294 28bf 1273 81bd 0574 9cbe
00000070: b69d f4bd 581b b0be d5fa 3abe f535 c1be
00000080: 9879 89bb 2cd7 9bbd 22c3 10bf 488e 68bd
00000090: 4ae4 35bf 07f7 b8be 404c 52be 871a d5be
000000a0: 57d3 cb3d 58ed 93be a5d0 ecbd d756 df3d
000000b0: 9104 0a3e 7d49 f9be e291 933e d6a8 0dbf
000000c0: f642 e1bd d7ec 96bd b930 3e3d 6d89 05be
000000d0: c391 cebe 691a dabc ac17 e43e 574c 19bf
000000e0: 5f9f a4be 54f3 3bbc 78b7 e1be 2b63 603d
000000f0: c0af e3be 39ce 933d 1ae0 96be 3bd8 14bf
-0.020226467 -0.50182 -0.27533156 -0.10968986 0.001493055 -0.20750526 -0.2927234 0.43452415
-0.4089266 -0.3271186 -0.12245178 -0.55663097 -0.119496904 0.26028216 -0.2638251 0.07434273
-0.3462786 -0.7923157 -0.2330478 -0.5685549 -0.22024894 -0.4590148 -0.09254841 0.45019397
-0.5739265 -0.65851223 -0.06320776 -0.30557266 -0.119441435 -0.34395862 -0.18259747 -0.37736478
-0.0041954033 -0.076094 -0.5654775 -0.056776315 -0.71051466 -0.36125967 -0.205369 -0.416218
0.09952419 -0.28892016 -0.11563233 0.10905235 0.13478304 -0.4868888 0.28822237 -0.5533575
-0.109991 -0.07369392 0.046433184 -0.13040705 -0.40345582 -0.026623921 0.4454931 -0.5988211
-0.3215284 -0.011471588 -0.44085288 0.054782074 -0.44470024 0.07217068 -0.2946785 -0.5814244

running_var f4 [64]
00000000: eba7 833e 1cb8 bb3e 4163 8c3e dccc 033f
00000010: fad2 a33e 1a7b e63e 3b56 893e d7e0 943e
00000020: a65a 553f db80 cc3e 0065 d93e 135c 5c3e
00000030: f0df b13e 5084 753e 9b8a a43e 6160 783e
00000040: 1133 bc3e ab93 a03e 0e84 b53e 9bb7 c63e
00000050: bd44 923e 6d50 e73e 94b0 8d3e 0b38 833e
00000060: b51e 933e 3747 813e bba2 a23e ab7b a03e
00000070: 6d35 8d3e f866 063f face 0e3f 9afc 9f3e
00000080: b5b6 103f 4502 c03e 3471 d23e 7bbb 8a3e
00000090: 2f16 c93e 39f2 e93e 685d 9d3e 4481 a03e
000000a0: 00bb b13e 9f03 0a3f 4391 d43e f442 923e
000000b0: be29 a03e 4a95 a63e 7661 843e 5360 cf3e
000000c0: 34f7 a33e 097a ad3e 9b44 a93e ff03 3e3f
000000d0: f65b ce3e 8941 b73e 621a 8e3e aaaf cf3e
000000e0: 74a5 c33e da90 773e ce9f 9b3e 6e53 8b3e
000000f0: 4156 a83e bd5a 833e 5e77 883e 60c8 a13e
0.2571405 0.36663902 0.27419475 0.51484466 0.319969 0.45015794 0.268236 0.2907779
0.83341444 0.3994206 0.4245987 0.21519499 0.34741163 0.23976254 0.32136998 0.24255516
0.3675771 0.31362662 0.35452312 0.38811955 0.28568068 0.45178548 0.2767378 0.25628695
0.28734365 0.25249645 0.31764778 0.3134435 0.27579823 0.5250087 0.5578457 0.31247407
0.5652879 0.37501732 0.41101992 0.2709616 0.39274737 0.45692614 0.30735326 0.31348622
0.34712982 0.53911775 0.41517076 0.28566706 0.31281847 0.32535774 0.25855607 0.40503177
0.3202454 0.33882168 0.33060154 0.7422485 0.40304536 0.35792187 0.27754503 0.4056371
0.38212168 0.2417635 0.3039536 0.2721209 0.32878307 0.25655165 0.2665357 0.31598186

weight f4 [64, 32, 4, 4]
00000000: a5ee 2c3d bcf2 263d c658 693d 180f 3dbd
00000010: 0932 e03b ca84 853d 2205 a63c 5783 60bc
00000020: 7798 d13c f180 123d 44b2 ce3c 6a9d bdbd
00000030: fe91 bcbc 07c1 b93d 7d3b 5c3d 093e 0b3d
00000040: f8b9 f1bc 7065 203d 8978 ab3b c350 b03c
00000050: 1806 4f3d 1cad 21bc 3e11 ddbc b6f3 22bd
00000060: cd6a 343d 9737 56bd c6b8 d0b9 aa06 b43c
00000070: e8c8 883c 06cd 06bb 76a8 413d d960 0e3c
00000080: 7f08 05bd 63ad 083d 6950 9ebb abc2 40bd
00000090: 88bc 96bc 7a32 b83c 841a d1bc a09e 15be
000000a0: 3bba b7bc 758c d93c 96c5 1bbd 2d82 83bd
000000b0: 37f4 233d b8db 8cbc e21a 353c 7ea1 09bd
000000c0: 81b6 6dbd 13e3 093d f3d3 9ebd 5680 61bc
000000d0: f17c fc3b 1918 75bc f4ca d13c 1532 0ebd
000000e0: eb49 a13c eae5 ac3c 0c2f dabc 1229 08b9
000000f0: f281 1cbd 1548 99bc 7b5c 3dbd cd7f c8bc
00000100: 6225 1ebd c5a0 f43c 0bfc 913a 9c64 96bc
00000110: 7011 abbc cf4e 04bd 0af9 523b 4137 103d
00000120: 5b5d 6c3c ccbc d63c 4351 93bd dfbf 49bd
00000130: 4f7a 683c ca3f cabb 3d5a 99bc 7e1c bfbc
00000140: a574 2c3d c196 50bd 4929 a03c 9929 bc3c
00000150: 9ddb 9abd 9e33 5c3d af7a 923d 61a2 993d
00000160: e98c 4cbd 09d4 bf39 0850 c1bb cf09 0cbd
00000170: d6cf e63b 069c 833c bbaa 463d 68bb 043d
00000180: ae37 25bb 50b0 073d 3f79 503b 9330 85bb
00000190: b08e e9bc 8a1c 043a ccba 193d 860a 81bd
000001a0: 9c8a 8a3c 7fa8 f43b e5ec 0dbd 09a4 28bc
000001b0: a88f abbd 39a9 b53c fb60 3abd b1bc ccbc
000001c0: 71a0 aa3c 7d62 48bc 29a5 173d ce21 44bd
000001d0: c457 30bb 2f3a b43c e5c5 843d e66c c5bc
000001e0: 42f0 3b3d 8c6a 60bd a090 5f3c 62ee b6bc
000001f0: 05d9 9c3c 5817 0e3d 79c1 7d3d e8f9 e23c
00000200: 90b0 debc 1fce 84bd 09e0 923c d64c fa3c
00000210: b01e 5cbd eb1d 2d3c 6064 4b3d 02a2 143d
00000220: bd3f e33b b8a5 4ebd 8baa af3c 784d 4539
00000230: 152d d63c 6134 d13a 85e5 9d3d a9e8 5d3d
00000240: 115e 933b 86c5 c23b a1a9 813d 3b50 953b
00000250: a691 b9bd 0711 c43d 2d29 783c 244d 80bc
00000260: 0835 743d 33fb b93d 01ae 153d a626 63bc
00000270: 58df 073d e4e0 6a3c 2334 983d 5600 b6bd
00000280: 3c57 3abd 7fba b53b d9a7 5cbd c30c d2bc
00000290: 20ee 64bb 9c6c 573d 2d5f 613c 4c18 5ebd
000002a0: 9619 4cbb 44be a5bc 0a19 f33c 00a8 c6ba
000002b0: 9682 753b 67e7 db3c dfe7 2dbc 2e9c b23c
000002c0: 9c7a 58bd 01ee 49bc 0f6d 0f3d f74e 0d3c
000002d0: 4b86 773d 0a56 973c df15 3e3d 1c46 393d
000002e0: 6c4b 253d ebe2 b23d 31ad ebbc 835e debc
000002f0: 2cda ca3c 8918 76bb 804f 93bd 0c98 babd
00000300: 6820 473d 3423 72bd 7321 c3bc c9a3 bc3c
00000310: 7559 df3b acb1 09be 7664 0dbd aebf 423d
00000320: 9334 753d 1fe6 7cbd 776e d23c adcb 313d
00000330: 48aa ddbc 9a96 48bd 7129 73bc 1f0b 72bd
00000340: 5654 e939 5849 0e3d 506f 5d3c c611 8ebd
00000350: 516c 533c 45d0 6dbd f499 a8bd 15d7 b83c
00000360: a3f1 343d df94 5c3d f137 aa3c ac33 51bd
00000370: 2792 19bc 4cf5 2dbb db29 b1bc 0a4a 98bc
00000380: 6b1e 4e3b 269f 0f3d 2547 d83c d42e 6f3b
00000390: fde1 df3c 1a72 ac3d 7efa f43c bb19 b4bd
000003a0: 5b35 e53c 57e8 0b3e 18bf f33c 55db 8ebd
000003b0: cb05 1e3c a3a9 9f3c 95fe 40bc 5ab1 d2bc
000003c0: dbd4 133d 5727 91bd 16a0 2b3d 5c2a 0cbd
000003d0: 3907 db3c af8c 833d 57e9 34bc d5e2 543d
000003e0: f0fa f5bb fff3 a9bc 6f54 b63c b643 043b
000003f0: 06dc 683d 1327 093d 75d8 8bbc da1b 2c3d
0.042219777 0.040758833 0.056969427 -0.046156973 0.006841902 0.06519468 0.02026612 -0.013703189
0.025585396 0.0357675 0.025231488 -0.0925854 -0.023018833 0.0907002 0.05376767 0.03399471
-0.029507622 0.03915924 0.005232875 0.021522885 0.05054292 -0.009867933 -0.02698576 -0.039783202
0.044047166 -0.05229911 -0.00039810519 0.021975834 0.016697362 -0.002056898 0.047279797 0.0086900825
-0.032478806 0.03336848 -0.004831363 -0.04706065 -0.018400446 0.022485007 -0.025525339 -0.14611292
-0.022427669 0.026556233 -0.03803023 -0.064213134 0.040027823 -0.017194614 0.011053773 -0.033601277
-0.058035377 0.03366382 -0.0775527 -0.013763508 0.007705324 -0.014959359 0.02560947 -0.03471573
0.019688567 0.021105725 -0.026633762 -0.0001298527 -0.038209863 -0.01871113 -0.046230774 -0.024475003
-0.03860987 0.029861817 0.0011137737 -0.018358521 -0.020882338 -0.03230172 0.0032191896 0.035208944
0.014426555 0.026213072 -0.07193234 -0.04925525 0.014189317 -0.006172155 -0.018719787 -0.023329016
0.04210343 -0.05092502 0.019550936 0.022969054 -0.07561419 0.053760163 0.07152306 0.075016744
-0.04993907 0.00036588337 -0.005899433 -0.03418904 0.007043819 0.016065609 0.048502665 0.032405287
-0.002521019 0.03312713 0.003181055 -0.0040646284 -0.028510422 0.0005039653 0.03753166 -0.06300835
0.016911797 0.0074663754 -0.03464975 -0.010293015 -0.0837701 0.022175418 -0.045502644 -0.024992319
0.020828458 -0.012230513 0.037022743 -0.0478838 -0.002690778 0.0220004 0.06483058 -0.024099778
0.045883425 -0.05478911 0.013645321 -0.022330467 0.019146452 0.03469023 0.061952088 0.027707055
-0.027183801 -0.06484627 0.017929094 0.030554216 -0.053740203 0.010566215 0.049656272 0.036287315
0.0069350884 -0.05045101 0.021443626 0.00018816243 0.026144544 0.0015961045 0.07709793 0.05417696
0.0044972976 0.005943957 0.06331182 0.0045566834 -0.09060983 0.0957356 0.015146536 -0.015661784
0.059620887 0.090811156 0.036542896 -0.013864195 0.03317198 0.014335845 0.07431819 -0.08886783
-0.04549335 0.0055459137 -0.05387101 -0.02564085 -0.0034931973 0.052593812 0.013755602 -0.05422239
-0.003114318 -0.020232327 0.029675025 -0.0015156269 0.0037461868 0.02684374 -0.010614364 0.021802988
-0.052851304 -0.012324811 0.035016116 0.008624784 0.060430806 0.018473644 0.046407577 0.045232877
0.04035513 0.087346874 -0.028769108 -0.027144676 0.024762236 -0.0037551245 -0.07192898 -0.09111032
0.04861489 -0.059115604 -0.02381966 0.023027318 0.006816084 -0.13446683 -0.034519635 0.04754608
0.05986459 -0.061742898 0.02568744 0.04340713 -0.027058735 -0.04897175 -0.014841423 -0.059092637
0.00044504058 0.034737915 0.0135153085 -0.06936984 0.012904243 -0.05805995 -0.08232489 0.022563497
0.044175755 0.053852912 0.020778628 -0.05107467 -0.009373224 -0.0026543913 -0.021626404 -0.018589992
0.0031451236 0.035063885 0.026401112 0.0036496418 0.02732944 0.08420201 0.0299046 -0.0879397
0.027979543 0.1366285 0.029754207 -0.06975428 0.009644936 0.019490069 -0.011779447 -0.025719333
0.036091667 -0.070875816 0.041900717 -0.034220085 0.026736842 0.06423318 -0.011041961 0.051974136
-0.0075067207 -0.02074623 0.022257058 0.002018196 0.056850456 0.03348453 -0.017070988 0.04201875

bias f4 [32]
00000000: 6a7c c23c 8531 25bc 5a3a 60bc 9d21 8c3c
00000010: cffe bebc 3f21 df3c 04d3 0e3d 688c 9cbc
00000020: ea47 00bc 2ae0 503b dd32 15bd 7ea2 85bc
00000030: a472 bbbc 3f5e ef3a 600c 843c c3ec ea3c
00000040: 5d67 23bb 2b30 20bc e4d6 153c 2eb5 183c
00000050: 7c1e 33bc 885d 0ebd 3fcd d5bc 0ad6 dd3b
00000060: 3d6b 8a3c 9371 203c 6753 12bd 8fd1 0fbd
00000070: 2a8b c53c 9ee4 e63c c092 883b d2d0 1e3d
0.023740966 -0.010082607 -0.013685787 0.017105872 -0.023314862 0.027237533 0.03486921 -0.01910992
-0.007829646 0.0031871893 -0.03642546 -0.016312834 -0.022881813 0.001826234 0.016119182 0.02867735
-0.0024933435 -0.009777109 0.009145472 0.00932054 -0.010932561 -0.034757167 -0.026098846 0.0067699
0.016896838 0.009792703 -0.03572407 -0.03511196 0.02411421 0.028185185 0.0041678846 0.038773365

weight f4 [32]
00000000: 42bb 7c3f 500d 6b3f 4665 803f 2991 623f
00000010: fe04 713f 4299 793f 505c 663f dc28 793f
00000020: 9fb6 7c3f 0593 8b3f 2f14 683f 8f62 643f
00000030: 803f 833f 787d 693f 7ab7 823f 181b 6e3f
00000040: 3fe7 753f 8c9c 803f 9ead 6c3f 55a8 763f
00000050: 9058 803f 2638 683f a1c5 833f 5abb 703f
00000060: 6946 6d3f 0fbd 663f f199 703f 7da6 833f
00000070: 975a 743f f57a 6b3f 3623 7f3f 2a01 883f
0.9872323 0.9181719 1.0030906 0.88502747 0.9414824 0.9749948 0.8998461 0.9732797
0.9871616 1.0904242 0.906558 0.8921289 1.0253754 0.91207075 1.0212243 0.9301009
0.9605598 1.0047774 0.9245242 0.96350604 1.0027027 0.90710676 1.0294687 0.94035876
0.9268556 0.9013223 0.93984896 1.0285183 0.9545073 0.9198449 0.996631 1.0625355

bias f4 [32]
00000000: a47a 97be e038 97bd 1be6 8cbe a329 aabd
00000010: d2d6 2bbd 581e 073c 8823 20be 47aa cb3c
00000020: 31f2 92bd e5bb 3dbe 05de 91bd 22e9 d7bd
00000030: 28b9 c93d 0bfa b4bd 2cab 1abe aa22 cebc
00000040: ad09 213d 247a 4a3d d2d7 e6bd d7fa 30be
00000050: 9374 cdbd 344d 94bd e60a 6abe 63ff 86bd
00000060: 810b 7cbd eb20 e7bd 295a 23bd 4321 be3d
00000070: 5860 02bd e146 0f3b 9c21 0abe c030 dfbd
-0.29585755 -0.07383895 -0.27519307 -0.08308723 -0.041952915 0.008246981 -0.15638554 0.024861468
-0.071751006 -0.18528707 -0.07122425 -0.105425134 0.09849769 -0.088367544 -0.1510436 -0.025163013
0.03931587 0.04943289 -0.11271633 -0.17283188 -0.100320004 -0.07241288 -0.2285572 -0.0659168
-0.06153441 -0.112855755 -0.039880905 0.09283688 -0.03183016 0.0021862315 -0.13489383 -0.1089797

running_mean f4 [32]
00000000: adb1 7fbc 4592 0abe 6b34 c0be 6007 f3bd
00000010: f2c3 f0be 2ec6 88be 3f1c e4bd 5a10 2f3d
00000020: e4c2 71be edc0 fc3e cba7 90be 9e68 7e3d
00000030: 4be5 6cbe 60d1 32bd 5e5c 803e 58a5 fbbe
00000040: 505a ddbd 0042 e2be 6d64 5dbc 7afc 6f3e
00000050: b72c b33e ae9d 1cbf 719e 443e 9c43 ffbd
00000060: 7c1c b6be a483 a4be 2c05 a5be 6231 a3be
00000070: 2dcc 32bf cecb 10bf d32d a63e cade 32bf
-0.015606326 -0.1353236 -0.37539992 -0.11866641 -0.47024494 -0.267137 -0.111382 0.042740203
-0.23609501 0.4936594 -0.28253016 0.06211149 -0.23134343 -0.043656707 0.2507047 -0.49149585
-0.10808241 -0.4419098 -0.013512713 0.23436156 0.34995052 -0.611781 0.19201066 -0.12464067
-0.35568607 -0.32131684 -0.32230508 -0.31873614 -0.698428 -0.5656098 0.32456836 -0.698712

running_var f4 [32]
00000000: 420d 823e d426 da3e 36b5 903e ac5b 023f
00000010: 1402 d63e ffcb 4a3f 8e6a 6b3e 9533 973f
00000020: 25ee b43e 13b4 b63e 1a6a c53f 4a32 ca3e
00000030: 243b ab3e 28a1 4f3f 1b8b ae3e 3213 3f3f
00000040: eca0 ec3e e121 9a3f 9723 b73e 6373 823e
00000050: 9b3d d43e aeb6 aa3e 7ed1 be3e 8ff7 b93e
00000060: e151 0f3f 44dd 2a3f 646d 713f 21d5 173f
00000070: 83df 083f 79e4 463f fdcf 943e 3416 f43e
0.2540074 0.42607749 0.28263253 0.5092113 0.4179846 0.79217523 0.22989866 1.1812617
0.3533794 0.3568426 1.5423005 0.39491493 0.33443558 0.8110528 0.34090504 0.74638665
0.46216524 1.2041589 0.3576934 0.25478658 0.4145325 0.333425 0.37269205 0.36321685
0.5598431 0.66743875 0.9430754 0.59309584 0.5346605 0.7769237 0.29064932 0.4767319
